Weights/ca_model_fbm_noise.pt (torch, 25307 bytes, 3 tensors)

w1.weight f4 [96, 48, 1, 1]
0	0x3d25b5e2	0.04045666
1	0xbdcbe5db	-0.09955951
2	0xbdd6e5e1	-0.10493065
3	0x3d7e9915	0.06215771
4	0xbdcac6a8	-0.09901172
5	0x3d3c95d1	0.046041314
6	0xbd998d17	-0.07497614
7	0xbc64c658	-0.013963304
8	0xbd187f2b	-0.03723065
9	0xbdafa615	-0.085765995
10	0xbe18ab53	-0.14909105
11	0xbdb700e5	-0.089357175
12	0x3d68fa8b	0.05687956
13	0xbc973d14	-0.018461742
14	0xbe2c3689	-0.16817679
15	0xbd209aa3	-0.039209973
16	0xbd552e10	-0.05204588
17	0xbd18fa94	-0.037348345
18	0x3d0df140	0.034653902
19	0xbc6618cc	-0.014043998
20	0x3d45a713	0.048255038
21	0xbdf7952c	-0.12088999
22	0x3df99cdf	0.12188124
23	0x3d7f49b8	0.062326163
24	0x3c4b765a	0.012418354
25	0x3d7c2df9	0.06156728
26	0x3cc6c83b	0.0242654
27	0xbc13cd1f	-0.009021073
28	0x3c51c4c2	0.012803258
29	0x3e1eda2a	0.1551291
30	0x3c8882d4	0.016663946
31	0xbd4d6eeb	-0.050154608
32	0x3d955346	0.07291274
33	0xbdfab26f	-0.12241065
34	0x3e03c46c	0.12867898
35	0x3dc4c10f	0.096071355
36	0xbcafcf89	-0.021461265
37	0x3e11f9e0	0.14255476
38	0xbd03761d	-0.032095063
39	0x3d0f9ac8	0.03505972
40	0x3ba1d2a1	0.004938439
41	0xbdc00955	-0.0937678
42	0xbb7329f1	-0.0037103856
43	0xbd2c42ef	-0.04205602
44	0x3d93f5ca	0.07224615
45	0x3c6e7430	0.014554068
46	0xbe3208ab	-0.17386119
47	0xbd85fa1c	-0.06541845
48	0x3e2f97c4	0.17147738
49	0xbe0bda15	-0.1365741
50	0x3df2dcf3	0.11858549
51	0x3ddb37af	0.1070398
52	0xbe5f5d58	-0.21812952
53	0x3c613a37	0.01374679
54	0xbd944998	-0.072405994
55	0xbdb722d4	-0.0894219
56	0x3e18afc0	0.14910793
57	0x3d567f3c	0.052367434
58	0x3d614ccc	0.05500488
59	0x3de18fbc	0.11013743
60	0x3d7c3b3b	0.061579924
61	0xbdbab810	-0.091171384
62	0xbc6d2211	-0.014473454
63	0x3d751fb9	0.059844706
64	0xbb57d241	-0.0032931718
65	0x3e2a9f42	0.16662315
66	0xbe0ce4ae	-0.1375911
67	0xbe186ba0	-0.14884806
68	0x3d9a00ae	0.07519661
69	0xbd3b4810	-0.04572302
70	0x3e059b2c	0.13047475
71	0xbdc346c6	-0.09534983
72	0x3d18e7fc	0.037330613
73	0xbc5d55f2	-0.0135092605
74	0x3de55824	0.11198452
75	0x3d18291c	0.03714858
76	0x3e01b8e0	0.1266818
77	0x3d2676b7	0.04064056
78	0xbdf90408	-0.12158972
79	0xba6eb686	-0.00091061776
80	0x3c8d87fa	0.017276753
81	0xbd8e6544	-0.06952909
82	0x3e12e35c	0.14344543
83	0xbd871469	-0.0659569
84	0x3d9373be	0.071998104
85	0xbad26d87	-0.001605437
86	0xbd2550ae	-0.040360145
87	0xbd49f92f	-0.049309906
88	0x3d6a2a2c	0.057169124
89	0xbdd3cc24	-0.10341671
90	0xbd94e13a	-0.07269521
91	0xbd9881fb	-0.07446667
92	0xbdef05bb	-0.11671015
93	0xbdf4c9d3	-0.119525574
94	0x3d4ddf9e	0.050262086
95	0xbdad5a25	-0.08464459
96	0x3dd768ae	0.10518013
97	0xbd6cf94f	-0.057854947
98	0x3cd01d44	0.02540458
99	0x3d02df42	0.031951196
100	0xbe685db5	-0.22691996
101	0xbd20b53c	-0.03923534
102	0xbbce5e4e	-0.006297863
103	0xbdabef7c	-0.083952874
104	0x3e4a84f1	0.19777276
105	0x3de2575e	0.1105182
106	0xbce6ad02	-0.028158668
107	0xbe47d17c	-0.19513506
108	0xbdced37c	-0.10098931
109	0xbda44ab5	-0.08022062
110	0xbd66ed8b	-0.056378882
111	0xbe10dffb	-0.14147942
112	0xbd583bb4	-0.052791312
113	0xbe08ffdd	-0.13378854
114	0xbe09456b	-0.13405387
115	0xbdd001bd	-0.101565816
116	0xbde67271	-0.11252297
117	0xbde7f7b2	-0.11326541
118	0x3df31b42	0.118704334
119	0x3a85b048	0.0010199631
120	0xbcb5f5fc	-0.022212021
121	0xbdf31a32	-0.11870231
122	0x3dafbadf	0.08580565
123	0xbd4d65e4	-0.050146
124	0x3dae448a	0.085091665
125	0xbc181fa7	-0.00928489
126	0x3c86b6ad	0.016444528
127	0xbd6d1efb	-0.057890873
128	0xbda98785	-0.082778014
129	0x3c58163c	0.013188895
130	0xbdc7522e	-0.097324714
131	0x3d3fb374	0.046802
132	0xba357146	-0.0006921481
133	0x3d83730a	0.06418426
134	0xbdb53032	-0.08847083
135	0xbdfaf4d3	-0.12253728
136	0x3da30228	0.07959396
137	0x3e27ae17	0.16375004
138	0x3c440afa	0.011965508
139	0x3ddf6d8b	0.109095655
140	0xbd18e02c	-0.037323162
141	0x3d5ea1c2	0.054353483
142	0x3dd7beb4	0.105344206
143	0x3cc37d63	0.0238635
144	0x3e14fc42	0.14549354
145	0xbdf0623c	-0.11737487
146	0xbd765da8	-0.06014791
147	0xbe208be4	-0.15678364
148	0xbd88f14b	-0.06686648
149	0x3d391a8c	0.045191333
150	0xbd86ad81	-0.06576062
151	0xbe052950	-0.1300404
152	0xbb046766	-0.0020203232
153	0x3d5ed6dd	0.05440413
154	0xbb09da2c	-0.0021034582
155	0x3ca13d1b	0.019682458
156	0x3dd3cec6	0.10342173
157	0x3dac543b	0.08414503
158	0xbdb2d2c5	-0.08731607
159	0x3d925c75	0.07146541
160	0x3d9f2ee7	0.07772618
161	0x3de22713	0.11042609
162	0x3d8fbe6e	0.070187435
163	0xbda2d438	-0.07950634
164	0xbde50878	-0.11183256
165	0x3d13ce1a	0.036085226
166	0xbda57915	-0.08079735
167	0x3e09976a	0.13436666
168	0xbdc5763d	-0.09641693
169	0xbc234ad6	-0.009966573
170	0xbda44a32	-0.08021964
171	0xbdb26b37	-0.08711856
172	0xbce28598	-0.027651593
173	0xbd54e891	-0.051979605
174	0x3da14a6c	0.07875523
175	0xbc979757	-0.018504782
176	0x3dd6a2b2	0.104802504
177	0x3e264814	0.16238433
178	0x3dbe9073	0.09304895
179	0xbe2f772e	-0.17135307
180	0x3daa1fcf	0.08306848
181	0xbdb44353	-0.088019036
182	0xbe07d96d	-0.13266535
183	0x3df7da99	0.12102241
184	0xbda1a996	-0.07893674
185	0xbe525ae4	-0.20542485
186	0xba0753ba	-0.00051623175
187	0x3e0879db	0.13327734
188	0xbd5a6f43	-0.053328764
189	0x3e2e3a5a	0.17014447
190	0xbc851f20	-0.016250193
191	0x3d4f5465	0.050617594
192	0x3d180b5c	0.03712021
193	0x3dfe310c	0.12411699
194	0x3e3439b6	0.1760014
195	0x3d8dc379	0.06922049
196	0x3dd0ade4	0.10189417
197	0x3ca2cff0	0.019874543
198	0x3c7506f1	0.014955268
199	0xbd4e9271	-0.050432626
200	0xbe006cda	-0.12541524
201	0xbd139f77	-0.03604075
202	0x3e30b787	0.1725751
203	0xbdaaaf3d	-0.08334205
204	0xbd75252f	-0.059849914
205	0x3ce646d7	0.028109951
206	0x39f201d6	0.00046159205
207	0xbc59dd29	-0.013297358
208	0xbe05abf5	-0.13053878
209	0x3d819c8f	0.06328689
210	0x3db41456	0.08792941
211	0xbe2402d2	-0.16016701
212	0xbde46797	-0.11152571
213	0x3da0389b	0.07823297
214	0xbc7aa824	-0.015298877
215	0x3db5675e	0.08857606
216	0xbddc2602	-0.10749437
217	0x3d845218	0.06460971
218	0x3d4feb3a	0.05076144
219	0x3daca2b5	0.084294714
220	0x3dce6a97	0.10078924
221	0x3d99be9f	0.07507061
222	0x3e189d0b	0.14903657
223	0xbdbc266e	-0.091870174
224	0xbd64311e	-0.055710904
225	0xbe210bbc	-0.15727133
226	0xbe7d6ae2	-0.24747804
227	0xbd8a0ec5	-0.06741098
228	0x3d8e5e11	0.069515355
229	0xbd7e4423	-0.0620767
230	0xbd5e9eb7	-0.05435058
231	0xbdadf324	-0.08493641
232	0x3de05f8a	0.10955723
233	0xbd4959ca	-0.049157895
234	0xbde5e838	-0.11225933
235	0x3e246ab8	0.16056335
236	0x3dd456ed	0.10368142
237	0xbc1ef637	-0.009702257
238	0xbe15d1a7	-0.14630757
239	0xbc7bf771	-0.015378819
240	0x3e4cace9	0.19987835
241	0x3daef61b	0.08543035
242	0x3d867a6d	0.065663196
243	0xbe223f16	-0.15844378
244	0x3bfc6ff9	0.007703778
245	0xbdc46cff	-0.09591102
246	0xbd5626e6	-0.05228319
247	0x3d820b72	0.06349839
248	0xbe4eaf2e	-0.20184013
249	0x3da5e372	0.081000224
250	0x3bbb3370	0.005712919
251	0x3c5f3688	0.013623841
252	0x3df9aad5	0.12190787
253	0x3d4294ea	0.047505297
254	0x3d212c41	0.039348844
255	0x3d9dd6ea	0.07707007

w1.bias f4 [96]
0	0xbd04f8f1	-0.03246397
1	0xbddb5634	-0.10709801
2	0xbddb203e	-0.10699509
3	0x3d7cb541	0.061696295
4	0xbc0ba692	-0.0085236
5	0x3db5db27	0.088796906
6	0x3d02e863	0.031959902
7	0x3dc0b2cd	0.094091035
8	0xbd82231a	-0.06354351
9	0xbd2fc2c9	-0.04291037
10	0x3d4c956f	0.0499472
11	0x3d93fcf7	0.072259836
12	0xbd857c2f	-0.06517827
13	0x3dbef2b7	0.09323638
14	0xbd5787bd	-0.052619684
15	0xbdd00684	-0.10157493
16	0xbaaa1e19	-0.001297894
17	0x3dc0a4f4	0.09406462
18	0x3d08fb17	0.033442583
19	0x3cda051e	0.026613768
20	0x3d809e40	0.06280184
21	0xbdc4915d	-0.09598038
22	0xbd7b2841	-0.061317686
23	0x3d563b8f	0.052302893
24	0x3a563cca	0.00081725104
25	0xbd309a57	-0.04311594
26	0xbc476a76	-0.012171378
27	0xbd755d20	-0.059903264
28	0xbe1f8027	-0.1557623
29	0xbd8097c8	-0.0627895
30	0xbd753f54	-0.059874848
31	0x3cf719e4	0.030163713
32	0x3d8ed67c	0.069745034
33	0xbc44a2b8	-0.012001686
34	0xbddf5bbc	-0.10906169
35	0xbdad7fa6	-0.08471613
36	0x3bf9c68b	0.007622545
37	0x3ddc9b52	0.107718125
38	0x3dc085cd	0.094005205
39	0x3db7307c	0.089447945
40	0xb98f5977	-0.00027341742
41	0x3ddbd3c9	0.10733754
42	0xbd53e1ca	-0.051729
43	0x3d219179	0.039445374
44	0xbc755515	-0.014973898
45	0xbd7e1d76	-0.062039815
46	0xbdb9aedb	-0.09066554
47	0x3da9fe6f	0.083004825
48	0xbd74beb7	-0.059752192
49	0x3db0678b	0.08613499
50	0xbd95492c	-0.07289347
51	0xbdd9536b	-0.10611614
52	0xbde85afb	-0.11345478
53	0xbe0155a8	-0.12630332
54	0x3dac764e	0.08421002
55	0x3d8f71db	0.07004138
56	0x3de81914	0.11332908
57	0x3db0349a	0.08603783
58	0xbd639e3a	-0.05557082
59	0xbde87474	-0.11350337
60	0xbd81141d	-0.063026644
61	0x3c07fc9b	0.008299972
62	0xbb07890b	-0.002068105
63	0xbde1cdaa	-0.110255554
64	0xbde0e7f8	-0.109817445
65	0x3b9b8f19	0.004747283
66	0xbdd7479b	-0.105117045
67	0xba330522	-0.0006829073
68	0xbd26cfe1	-0.040725593
69	0x3dcfd896	0.10148732
70	0x3dbaa34d	0.091131784
71	0xbca5504d	-0.020179892
72	0xbd4bfc22	-0.049801
73	0xbd171e3a	-0.03689406
74	0x3dcc278d	0.09968481
75	0x3da4912f	0.08035504
76	0xbdfb2ffd	-0.122650124
77	0xbd950f9b	-0.07278367
78	0x3d087d94	0.033322886
79	0xbd8aa7d1	-0.0677029
80	0x3d927ff3	0.071533106
81	0x3d9533ce	0.072852716
82	0xbd1ef94c	-0.038811967
83	0xbdc2fe44	-0.095211536
84	0xbdacd3ee	-0.0843886
85	0x3d13cf2e	0.036086254
86	0xbe0c203b	-0.1368417
87	0x3da76c6e	0.08174978
88	0xbd808980	-0.06276226
89	0x3c8eba3c	0.017422788
90	0x3d101bc3	0.035182726
91	0x3daf0fdb	0.08547946
92	0x3dc13a0a	0.09434898
93	0xbdf32e03	-0.118740104
94	0xbd48f1d3	-0.049058747
95	0x3db28d6f	0.087183826

w2.weight f4 [12, 96, 1, 1]
0	0x3c46d9e9	0.012136915
1	0x3c8d07b1	0.017215582
2	0xbcb4677a	-0.022021998
3	0xbcacb16c	-0.021080695
4	0x3c8ed23e	0.017434236
5	0xbc977da7	-0.018492533
6	0xbc62f81d	-0.0138531
7	0xbb4a4a88	-0.0030867178
8	0x3c2f72d9	0.010708534
9	0x3c220128	0.009887971
10	0x3c7d79d5	0.015470942
11	0x3c59c897	0.013292453
12	0xbbc3a229	-0.0059702587
13	0x3cc169ff	0.023610113
14	0xbd758b42	-0.05994726
15	0x3bfcb9ff	0.007712602
16	0x3cceb58b	0.02523305
17	0xbc84633b	-0.016160598
18	0xbca36996	-0.019947808
19	0xbcaa3201	-0.020775797
20	0x3c85a439	0.016313659
21	0xb98fe3a2	-0.00027444685
22	0xbca3f156	-0.020012539
23	0xbb053f43	-0.0020331896
24	0xbce2df70	-0.027694434
25	0xbc1cd594	-0.009572405
26	0x3cedf487	0.029047264
27	0x3c987cac	0.018614136
28	0x3cd14e82	0.02555013
29	0xbcbb2be2	-0.022848073
30	0x3d13aa72	0.03605122
31	0xbd10ad5e	-0.035321586
32	0x3b4643c4	0.0030252794
33	0x3d2adee1	0.04171646
34	0x3d0fc84a	0.03510312
35	0x3c9b0e88	0.018927827
36	0x3cea53d0	0.028604418
37	0xbb5a11bb	-0.0033274728
38	0xbc050ca3	-0.008120689
39	0xbc21cd71	-0.009875641
40	0x3b534da7	0.003224233
41	0xbcafc503	-0.021456247
42	0x3cb85b5c	0.022504501
43	0xbbe29dd4	-0.0069157872
44	0x3b0a33fd	0.0021088116
45	0xbcc3f0ca	-0.023918528
46	0xbd1bd5f4	-0.03804584
47	0xbcbafb18	-0.022824809
48	0x3d049915	0.032372553
49	0x3d2ea813	0.042640757
50	0x3be08d84	0.0068528075
51	0x3b1a21bf	0.002351865
52	0xbc6be7f9	-0.014398568
53	0x3b103896	0.0022006384
54	0xbce86efc	-0.028373234
55	0xbbafb320	-0.0053619295
56	0xbb2df225	-0.0026542034
57	0x3bce0fa8	0.0062884875
58	0x3c0c606f	0.008567913
59	0x3d0c8402	0.03430558
60	0x3ca2b9a9	0.01986392
61	0x3b757076	0.0037451065
62	0x3ccd57ac	0.02506622
63	0x3c80b348	0.015710488
64	0x3c6bedc4	0.014399949
65	0x3b1e15fc	0.002412199
66	0xbd6f9af2	-0.058497377
67	0xbc22b24a	-0.009930203
68	0x3c2c5647	0.010518617
69	0x3bb5c60c	0.0055472907
70	0xbbf68026	-0.0075226007
71	0x3d01f066	0.031723402
72	0x3d1a8dcc	0.037732884
73	0xbc37915e	-0.011204092
74	0xbd0099b5	-0.031396586
75	0xbc75bb10	-0.014998212
76	0xbc6d8ed5	-0.014499386
77	0x3c0693d6	0.008213958
78	0x3c3f9739	0.011693769
79	0x3c47b9b7	0.012190274
80	0xbcac2d99	-0.021017836
81	0xbc71bc7d	-0.014754412
82	0x3d346e68	0.044050604
83	0xbd879475	-0.06620113
84	0x3c41814c	0.011810612
85	0xbc01ade1	-0.007914991
86	0x3d535816	0.051597677
87	0xbc88a544	-0.016680367
88	0x3ce03c46	0.02737249
89	0x3c242e49	0.010020801
90	0x3bd7e9ae	0.006589136
91	0xbb802d4f	-0.003911651
92	0xbbf649e3	-0.007516132
93	0xbd0131ac	-0.03154151
94	0x3c270250	0.010193422
95	0xbc6f1af5	-0.014593829
96	0x3cb1ec78	0.021719202
97	0x3cf15322	0.029458586
98	0xbc38fa87	-0.011290199
99	0xbc957f31	-0.018249126
100	0x3c1c0d54	0.009524662
101	0xbb42495e	-0.002964578
102	0x3d26ef10	0.04075533
103	0xbbfd2221	-0.0077250157
104	0x3ca88577	0.020571453
105	0x3c0dec18	0.008662246
106	0xbbf59580	-0.0074946284
107	0x3c444591	0.011979477
108	0xbc2c4bd6	-0.010516128
109	0x3c8c950a	0.017160911
110	0xbd5a9d3b	-0.053372603
111	0x3b04ee62	0.0020283689
112	0x3cb350e3	0.021889156
113	0xbcf977b5	-0.030452589
114	0xbc11fd91	-0.008910553
115	0xbc972122	-0.018448416
116	0x3ced78ee	0.028988328
117	0xbb83d9cc	-0.004023766
118	0xbca4bf03	-0.020110613
119	0xba8c9543	-0.0010725636
120	0xbc58133c	-0.01318818
121	0xbc062d3b	-0.008189495
122	0x3ce6851e	0.028139647
123	0x3cab62c8	0.020921126
124	0x3c1b47d4	0.009477574
125	0xbc849250	-0.016183048
126	0x3c2256dd	0.009908405
127	0xbcdcb116	-0.02693991
128	0x3c126045	0.008934085
129	0x3d3f29e5	0.046670813
130	0x3d154697	0.036444273
131	0x3c9875c5	0.018610844
132	0x3c52e822	0.012872728
133	0xbb815869	-0.003947307
134	0xbbefc0ed	-0.0073166997
135	0xbc339573	-0.010960924
136	0x3b9879cb	0.0046531907
137	0x3bdf9247	0.0068228575
138	0x3cb8e1df	0.022568641
139	0xbb8e4dca	-0.0043427693
140	0x3cd7a056	0.026321571
141	0xbc493309	-0.012280234
142	0xbcefa2f4	-0.029252507
143	0xbc9b9302	-0.018990997
144	0x3d06362d	0.03276651
145	0xbcb85d6e	-0.022505488
146	0xb9b9756c	-0.00035373436
147	0xbc3863b8	-0.011254244
148	0xbc5ddbbf	-0.013541161
149	0x3b83218b	0.0040018014
150	0xbc67d41b	-0.014149691
151	0x3a665806	0.000878692
152	0xba7b29dc	-0.00095811277
153	0xbcc19cdf	-0.023634372
154	0x3bd501a4	0.0065004397
155	0x3cfa4a3e	0.03055298
156	0x3ca07ed8	0.019591734
157	0x3c615471	0.013753043
158	0xb94ebf9b	-0.0001971707
159	0x3cb4d0e2	0.02207226
160	0x3cbc1f40	0.02296412
161	0xbc740838	-0.014894538
162	0xbd77f3df	-0.060535308
163	0xbc282039	-0.010261589
164	0x3c03b99c	0.008039858
165	0xbbe02a93	-0.0068410127
166	0x3ccc4009	0.024932878
167	0x3d21306b	0.039352816
168	0xbcd168e2	-0.025562707
169	0xbd18d6ce	-0.03731423
170	0xbc3f0770	-0.011659488
171	0xbd6e30bf	-0.058151957
172	0xbc059e34	-0.008155394
173	0x3b08ff3e	0.002090409
174	0x3c00f18e	0.007870091
175	0x3c5391f9	0.012913221
176	0x3c2b54db	0.010457243
177	0xbc3d2866	-0.011545276
178	0x3d254a45	0.040354032
179	0xbd7a928e	-0.06117492
180	0x3ca86961	0.020558061
181	0xbbd54939	-0.006508973
182	0x3d414792	0.047187395
183	0xbc4dcf15	-0.012561579
184	0x3ce2129f	0.02759677
185	0x3c4053bb	0.011738713
186	0x3c640478	0.013917081
187	0x3c8efc6d	0.01745435
188	0xbc81d989	-0.0158508
189	0xbccfdd76	-0.025374155
190	0x3d243e96	0.04009875
191	0xbce29438	-0.027658567
192	0x3c1e53a5	0.009663497
193	0x3c778669	0.0151077295
194	0xbca9f4ac	-0.020746551
195	0xbca344d1	-0.019930275
196	0x3c9c665e	0.019091781
197	0x3c8c78e9	0.017147498
198	0xbcbd6fbc	-0.023124568
199	0xbd270290	-0.04077393
200	0x3b50f6d8	0.0031885412
201	0x3bb52325	0.005527871
202	0x3d069430	0.032856166
203	0x3c2f9ad7	0.010718069
204	0xbb8b54a0	-0.0042520314
205	0x3cccaefe	0.024985787
206	0xbd61c817	-0.05512246
207	0xbb87ee86	-0.0041483073
208	0x3cbe4eee	0.023230996
209	0xbbd33b63	-0.0064462884
210	0x3b5a27c4	0.0033287862
211	0xbcd517e4	-0.026012369
212	0x3b5e84a8	0.003395358
213	0x3bd2a856	0.0064287586
214	0xbc893288	-0.016747728
215	0xbbc15006	-0.005899432
216	0xbcd5c6d0	-0.026095778
217	0xbbf4ab18	-0.007466685
218	0x3cee89f2	0.029118512
219	0x3cb66d9d	0.022269065
220	0x3cede0e0	0.029037893
221	0xbc9d02a8	-0.019166306
222	0x3cefb767	0.029262258
223	0xbcac2c07	-0.021017088
224	0x3965b2d6	0.00021905763
225	0x3d1fb8a3	0.038994443
226	0x3d05041e	0.03247463
227	0x3ca183b2	0.019716118
228	0x3d097c81	0.033566
229	0x391fa278	0.00015223946
230	0xbc247222	-0.010036977
231	0xbc5a1e4c	-0.013312887
232	0x3d90b52e	0.07065807
233	0xbb426c02	-0.0029666428
234	0x3cc9ee59	0.024649786
235	0xbb709253	-0.003670831
236	0xba7aee5a	-0.00095722603
237	0xbcdfdacf	-0.027326016
238	0x3c2f30e5	0.01069281
239	0xbae4630e	-0.001742454
240	0x3cf39baa	0.029737312
241	0x3c11101f	0.008853941
242	0x3ba1e5c1	0.004940719
243	0x3bfaf297	0.0076583135
244	0xbc454f6a	-0.01204286
245	0x39af2aff	0.00033410636
246	0xbcde522e	-0.027138796
247	0xbb5fc8f2	-0.0034146872
248	0xbb1e3ecc	-0.0024146317
249	0xbd0d220d	-0.0344563
250	0x3c591717	0.013250134
251	0x3d199d46	0.037503503
252	0x3c545846	0.012960499
253	0xbc05880f	-0.008150115
254	0x3c9a78b2	0.01885638
255	0x3c8c3c04	0.017118461
