Weights/ca_model_pearl_ero.pt (torch, 25377 bytes, 3 tensors)

w1.weight f4 [96, 48, 1, 1]
-0.105750315 0.028597407 -0.14823796 -0.0040112375 0.110176526 -0.066620834 0.023937024 0.03323787
-0.052105654 -0.13981557 -0.08118847 0.022875126 -0.15759242 -0.027406018 -0.119040534 0.015074458
-0.025699228 0.012091135 0.031076558 0.068771794 0.1146288 0.117638335 0.12222305 -0.13787197
-0.067137145 -0.10480935 -0.05674138 -0.0035711469 0.06222946 -0.016384706 0.106594786 -0.0252818
0.003668354 0.029540142 -0.058404632 0.0034331973 -0.02781037 -0.12126894 0.10501945 0.12450153
-0.059827473 0.018484779 0.01393184 0.048117056 0.06967919 0.067304224 0.13401935 -0.11538586
-0.14988777 0.03939066 0.015876716 -0.017985985 -0.1560572 0.13884555 -0.06837025 0.1511673
-0.028184073 0.15404457 0.1434601 -0.022029733 -0.026283003 0.06633744 -0.05665827 0.08399777
0.036384165 0.116630346 0.08186048 0.070176825 0.036140073 0.09520888 -0.014753873 -0.08448785
0.029254993 -0.06521499 0.031279083 0.03868482 0.0150784105 0.01586535 -0.1020429 -0.0438114
0.06788394 0.06554681 -0.008181243 -0.1814408 0.0425089 -0.036560535 0.14566964 -0.08088909
0.0017590687 0.06716497 0.17042255 0.056371838 -0.018078834 -0.11242252 -0.07132841 0.09907951
0.030817859 -0.18275006 -0.08077792 0.07930313 -0.021912117 0.031662114 -0.14237319 0.008169339
-0.113075495 -0.030497741 0.08461231 0.055113524 -0.010235183 -0.16257942 0.062402077 0.12012554
0.06767299 0.038697798 -0.001074172 -0.11261621 0.027432064 -0.14574036 -0.0978336 -0.13794066
-0.049385052 -0.19864851 -0.16756259 -0.05170937 0.071704954 -0.10089407 0.12324427 0.09877595
0.045543175 0.05883123 0.15543093 -0.0761233 -0.09391228 -0.12138555 -0.025586894 0.07779256
0.04615753 -0.11630102 -0.07067083 0.17467867 -0.054285966 -0.12668836 -0.017547434 0.034414448
-0.06657136 -0.065714896 -0.008059141 0.11633013 -0.06645746 -0.08812481 0.07959247 -0.034076557
-0.0035386195 0.06638204 0.117696226 0.11492261 0.11060537 0.12841855 0.108678095 -0.07815425
-0.120356984 -0.07305833 0.13246241 0.10630444 -0.021735502 0.118125856 0.066748776 -0.14294007
-0.12677984 0.0035940055 0.055339552 0.13026474 0.1503579 0.11861866 0.008065414 -0.13900092
0.088633046 0.09297939 -0.094276376 0.06809212 -0.008594493 -0.123556435 0.1073788 0.015813844
0.1295725 0.028874908 0.021883532 0.119547606 0.12697259 0.12704638 -0.07546677 0.09041036
-0.027815036 -0.11699257 0.0663102 -0.114622444 0.059484422 0.002659048 -0.00035928734 0.008904568
-0.19616951 0.1568178 -0.02465423 0.23138353 -0.009412494 -0.027649181 0.06928796 -0.00067660876
-0.011017963 0.034500495 -0.09509198 0.05914615 -0.04225441 -0.0054108 0.007510858 -0.12439308
0.1354708 -0.07815706 -0.118151255 -0.014100596 -0.08819507 0.029549673 -0.096177734 -0.0022831315
-0.06559772 0.040249 -0.056508847 0.09831286 0.14875668 0.014510652 0.025063053 -0.03526058
-0.08328578 -0.06644974 0.0999716 0.033320013 0.059692167 -0.0038510088 -0.09113987 -0.12586777
0.1457466 -0.07590209 0.05766552 -0.1358405 -0.043020945 0.07726369 -0.15029559 -0.053770635
0.11284299 -0.09915915 0.109854385 -0.08547845 0.05718568 -0.0050948453 -0.044282295 0.068171985
00000000: 9f93 d8bd 1c45 ea3c b1cb 17be b370 83bb
00000010: 3ba4 e13d 8170 88bd 9417 c43c 6f24 083d
00000020: bd6c 55bd d02b 0fbe 2446 a6bd 9e64 bb3c
00000030: e85f 21be 9682 e0bc 86cb f3bd dcfa 763c
00000040: 3087 d2bc e519 463c 4494 fe3c 3ad8 8c3d
00000050: 81c2 ea3d 5eec f03d 1450 fa3d 4f2e 0dbe
00000060: 337f 89bd 49a6 d6bd a669 68bd e709 6abb
00000070: 51e4 7e3d 3839 86bc 5e4e da3d c71b cfbc
00000080: c468 703b 2bfe f13c b239 6fbd 7eff 603b
00000090: 93d2 e3bc da5b f8bd 7014 d73d a8fa fe3d
000000a0: a70d 75bd 646d 973c 5f42 643c 6416 453d
000000b0: f7b3 8e3d ccd6 893d 5e3c 093e 6c4f ecbd
000000c0: 2e7c 19be 1a58 213d e30f 823c 5857 93bc
000000d0: 75cd 1fbe 872d 0e3e b405 8cbd 9acb 1a3e
000000e0: 49e2 e6bc dcbd 1d3e 34e7 123e b377 b4bc
000000f0: 744f d7bc ecdb 873d 8112 68bd 0607 ac3d
00000100: 9007 153d e4db ee3d 78a6 a73d deb8 8f3d
00000110: 9d07 143d e0fc c23d 3bba 71bc f707 adbd
00000120: 2ba8 ef3c 708f 85bd 7f1e 003d f973 1e3d
00000130: 700b 773c 0df8 813c defb d0bd 9573 33bd
00000140: bc06 8b3d 683d 863d 9f0a 06bc 9ecb 39be
00000150: d01d 2e3d 80c0 15bd 6c2a 153e 2ea9 a5bd
00000160: 8d90 e63a ca8d 893d 4083 2e3e 28e6 663d
00000170: 101a 94bc c73d e6bd a114 92bd 33ea ca3d
00000180: bc75 fc3c d522 3bbe e56e a5bd ae69 a23d
00000190: 0a81 b3bc 22b0 013d 47ca 11be b1d8 053c
000001a0: 2094 e7bd 66d6 f9bc 3849 ad3d b8be 613d
000001b0: 78b1 27bc 387b 26be 5299 7f3d 6104 f63d
000001c0: 2398 8a3d 9581 1e3d 3bcb 8cba 54a3 e6bd
000001d0: 35b9 e03c f63c 15be fc5c c8bd 5140 0dbe
000001e0: fb47 4abd 846a 4bbe 8795 2bbe 34cd 53bd
000001f0: 0cda 923d 8da1 cebd 7e67 fc3d 0c4b ca3d
00000200: 7b8b 3a3d 04f9 703d 4929 1f3e 88e6 9bbd
00000210: 1555 c0bd fd98 f8bd 9b9b d1bc b551 9f3d
00000220: ae0f 3d3d 3b2f eebd debb 90bd f7de 323e
00000230: f65a 5ebd 98ba 01be a3bf 8fbc 2af6 0c3d
00000240: 9156 88bd 8895 86bd 7d0a 04bc 7e3e ee3d
00000250: d91a 88bd c87a b4bd 6001 a33d dc93 0bbd
00000260: 2fe8 67bb 4ff3 873d b80a f13d 8c5c eb3d
00000270: 1185 e23d 2780 033e 9f92 de3d 560f a0bd
00000280: b97d f6bd 9b9f 95bd 3aa4 073e 24b6 d93d
00000290: a70e b2bc f8eb f13d 95b3 883d e25e 12be
000002a0: 93d2 01be 6889 6b3b baab 623d 1f64 053e
000002b0: 6cf7 193e 57ee f23d cc24 043c 4256 0ebe
000002c0: 3e85 b53d fa6b be3d f913 c1bd e273 8b3d
000002d0: ebcf 0cbc 280b fdbd 6be9 db3d 098c 813c
000002e0: a7ae 043e 128b ec3c 1845 b33c 60d5 f43d
000002f0: 1a05 023e 7218 023e 528e 9abd 1129 b93d
00000300: 5cdc e3bc cd99 efbd a4cd 873d 2cbf eabd
00000310: f0a5 733d 6c43 2e3b bb5e bcb9 77e4 113c
00000320: a9e0 48be d894 203e abf7 c9bc ceef 6c3e
00000330: dc36 1abc 8980 e2bc d9e6 8d3d 725e 31ba
00000340: b084 34bc 6450 0d3d 96bf c2bd 3c43 723d
00000350: f612 2dbd 154d b1bb a51d f63b cdc1 febd
00000360: dbb8 0a3e cf10 a0bd 49f9 f1bd 3006 67bc
00000370: 9e9f b4bd 2812 f23c d5f8 c4bd 97a0 15bb
00000380: 1958 86bd 23dc 243d d275 67bd 4158 c93d
00000390: ac53 183e 16be 6d3c 0851 cd3c 666d 10bd
000003a0: bc91 aabd cd16 88bd e9bd cc3d 917a 083d
000003b0: c67f 743d 3561 7cbb 8aa7 babd 7be3 00be
000003c0: 993e 153e 8e72 9bbd ae32 6c3d c619 0bbe
000003d0: bb36 30bd 6d3c 9e3d 16e7 19be 993e 5cbd
000003e0: 3a1a e73d f413 cbbd 56fb e03d 530f afbd
000003f0: 883b 6a3d a9f2 a6bb 5a61 35bd c19d 8b3d

w1.bias f4 [96]
-0.037363112 -0.1003263 -0.0699779 -0.013569369 -0.056435823 -0.08380798 0.111807495 0.09395146
-0.07021192 -0.04338677 0.023871563 -0.035006355 0.0899943 0.06057204 0.05163221 0.053396013
0.058035545 0.10552782 0.1112251 -0.020045318 -0.021628233 0.015774082 -0.019637065 0.119924255
-0.023559697 -0.068356134 -0.052362874 -0.02075043 -0.0841035 -0.11571784 -0.1362986 -0.050143793
-0.06308824 -0.0064412714 -0.038958333 -0.059700042 0.08612468 0.09491396 -0.095806755 0.08135746
0.068870775 -0.002752358 -0.023344643 -0.12959929 0.10671137 -0.13314477 -0.094218284 -0.040819176
-0.120118916 0.012628612 -0.05863373 -0.021907808 0.041864797 -0.0063222884 0.06896688 -0.050771818
-0.0436601 -0.076201886 0.013791392 -0.013040445 -0.0007147418 -0.07466799 -0.1088409 0.04260884
-0.029874107 -0.013182665 -0.045373343 0.12765129 0.0830245 -0.024774592 0.050424047 -0.08618328
0.08965744 -0.057177834 -0.06170953 0.064570695 -0.1443051 0.10028234 0.12977076 -0.041104726
-0.042440053 -0.015284078 0.11287499 0.004625536 -0.085602105 0.00065734365 0.013104003 0.091172
0.09667207 -0.096934505 0.116616994 -0.03384034 -0.083760604 0.11085342 0.08703325 0.056695435
00000000: 100a 19bd e077 cdbd 9350 8fbd 0f52 5ebc
00000010: 4029 67bd 85a3 abbd 54fb e43d a069 c03d
00000020: 44cb 8fbd 53b6 31bd 4c8e c33c d362 0fbd
00000030: ee4e b83d 631a 783d 4c7c 533d c7b5 5a3d
00000040: aeb6 6d3d f81e d83d fcc9 e33d 1436 a4bc
00000050: b12d b1bc a638 813c e9dd a0bc d99a f53d
00000060: 4400 c1bc 4dfe 8bbd 747a 56bd cefc a9bc
00000070: 753e acbd 7afd ecbd dc91 0bbe 9463 4dbd
00000080: 6834 81bd 4d11 d3bb c692 1fbd 0888 74bd
00000090: 2362 b03d 4062 c23d 5536 c4bd bd9e a63d
000000a0: 1f0c 8d3d e860 34bb 443d bfbc adb5 04be
000000b0: 7e8b da3d 1a57 08be 84f5 c0bd 0232 27bd
000000c0: e800 f6bd 3de8 4e3c ec29 70bd 0178 b3bc
000000d0: 6c7a 2b3d 332b cfbb 823e 8d3d 1cf6 4fbd
000000e0: efd4 32bd bc0f 9cbd 4af5 613c 97a7 55bc
000000f0: 835d 3bba 88eb 98bd fae7 debd 9b86 2e3d
00000100: 8bba f4bc 1bfc 57bc 66d9 39bd 05b7 023e
00000110: c008 aa3d 16f4 cabc 7289 4e3d dc80 b0bd
00000120: 529e b73d 4e33 6abd 22c3 7cbd a43d 843d
00000130: b7c4 13be d460 cd3d a0e2 043e 6e5d 28bd
00000140: 9fd5 2dbd 126a 7abc 012b e73d cf91 973b
00000150: 2850 afbd 9651 2c3a 2cb2 563c 63b8 ba3d
00000160: 02fc c53d 9985 c6bd e4d4 ee3d 2b9c 0abd
00000170: ae8a abbd 1e07 e33d 7d3e b23d 7939 683d

w2.weight f4 [12, 96, 1, 1]
0.012593315 0.02238448 0.017078793 0.014965837 0.0017465786 -0.031512477 -0.0028942733 -0.02459214
0.017125707 -0.002275587 0.033191808 0.03174084 0.0038190736 0.009109062 -0.009782446 -0.005776103
-0.039396923 -0.0039886995 -0.017225184 0.02382592 0.021328967 0.01662725 -0.014132922 0.0011029415
0.024024554 0.008912656 -0.008922669 0.024761977 -0.030000493 0.018522974 -0.0032866776 0.011087363
-0.0060556014 0.025480691 0.009744068 -0.011528889 -0.029560665 -0.029039579 -0.0011221337 -0.021837335
-0.0030619951 0.011689414 0.015990095 -0.042687915 -0.017672554 -0.015464404 -0.033094276 0.010116094
0.009482925 0.018833142 0.0011491852 0.0060153417 0.010770077 0.040598247 -0.0057937223 0.012158522
0.012524772 0.019838426 -0.012683104 -3.2151114e-05 0.016620096 0.030731328 -0.04454151 0.027210087
0.014986781 -0.00040837494 0.007821293 -0.045952998 -0.017258184 0.006287531 0.012023202 -0.016505092
-0.010455626 0.043835483 0.007926682 0.0014100302 -0.026221642 -0.013644949 -0.029349653 0.010290968
0.035429526 0.008767698 -0.0140704 0.024080666 0.023387082 0.005621419 -0.0341776 -0.007491295
-0.02801488 -0.011614217 -0.012254571 0.009115995 -0.0020296264 -0.010851848 0.0044116313 -0.03334065
0.00774651 0.022203555 0.017229205 0.015081708 0.0030351712 -0.031948656 0.010609245 -0.0035112721
0.021682283 -0.0044764024 -0.026152397 0.029958144 -0.03462602 0.005951195 -0.0056332643 -0.01983694
-0.025081014 -0.012148393 -0.01651969 0.02897794 0.02559655 0.009164314 -0.014217777 -0.0048529278
0.025147507 0.009226212 -0.010062956 -0.03023192 0.04943373 0.018015245 0.0046841004 -0.00024508213
-0.0004996695 0.0018973239 0.021402692 -0.015571798 -0.02525062 -0.029941399 0.0015706107 -0.027426561
-0.005042807 0.008623199 0.0030653786 -0.04034813 -0.010727245 0.0011635561 -0.036444664 0.015698507
0.010536216 -0.007335821 -0.0050260266 0.02681005 0.0043247943 0.041414864 -0.003448342 0.010639329
-0.0006354256 0.021219913 -0.013349165 -0.010752006 0.022777569 0.019483449 -0.035815787 0.02392358
0.017841851 0.011309796 0.008232748 0.04252031 -0.010438643 0.008525552 -0.0075145187 -0.021564843
-0.013584769 0.048502386 0.0018985849 -0.021115243 -0.019671736 -0.009351567 -0.025424354 0.013090418
0.030101985 0.008287925 -0.011989236 0.03167055 0.029563839 0.03664311 -0.049922194 -0.01060501
0.003056498 -0.0057248427 -0.032216564 0.005093133 0.00062801817 -0.011519209 -0.0066835955 -0.033225764
0.015166363 0.018326364 0.024201322 0.011940895 0.04470536 -0.030320477 -0.01846674 -0.014313768
0.016117219 0.004035052 -0.018440828 0.029173737 0.0017956106 0.0021941753 -0.011585645 -0.0008461723
0.028095225 0.0010125038 -0.024650224 0.021647813 0.021854887 0.0070103896 -0.0024181304 -0.008930617
0.020870619 0.0013820103 -0.015491499 0.0057584825 -0.034899443 0.016715849 -0.002847038 0.001815011
-0.004605184 0.0024996875 0.052345555 0.014275967 -0.0338687 -0.02796235 -0.012304903 -0.015797464
0.007925358 0.01826254 0.02617043 -0.044846848 -0.012031288 -0.0125908 -0.028984088 -0.00085968326
-0.0032657315 -0.007674481 0.008268991 -0.011960849 0.0133793205 0.0485103 -0.010479858 0.0017186811
0.009266575 0.019669352 -0.011235114 0.009526161 0.02749026 0.018261487 -0.041938856 -0.011402224
00000000: 3154 4e3c a85f b73c d3e8 8b3c 4533 753c
00000010: 74ed e43a 3a13 01bd d9ad 3dbb 7575 c9bc
00000020: 364b 8c3c 0422 15bb 22f4 073d af02 023d
00000030: 6c49 7a3b 2d3e 153c 8d46 20bc 7745 bdbb
00000040: ab5e 21bd a3b3 82bb d41b 8dbc 932e c33c
00000050: 16ba ae3c df35 883c c58d 67bc 9390 903a
00000060: 24cf c43c 6406 123c 6330 12bc a1d9 ca3c
00000070: 98c3 f5bc 7ebd 973c 4d65 57bb c5a7 353c
00000080: 116e c6bb e2bc d03c 95a5 1f3c aae3 3cbc
00000090: 3529 f2bc 69e4 edbc 8f14 93ba 36e4 b2bc
000000a0: c1ab 48bb f584 3f3c a9fd 823c 86d9 2ebd
000000b0: 08c6 90bc 695e 7dbc dd8d 07bd f9bd 253c
000000c0: 455e 1b3c f647 9a3c 42a0 963a 581c c53b
000000d0: fa74 303c 594a 263d 44d9 bdbb 8a34 473c
000000e0: b434 4d3c 3284 a23c cbcc 4fbc ffd9 06b8
000000f0: de26 883c 44c0 fb3c 2971 36bd b0e7 de3c
00000100: 1e8b 753c 281b d6b9 e124 003c 3639 3cbd
00000110: 0961 8dbc a207 ce3b f7fc 443c b035 87bc
00000120: 134e 2bbc d68c 333d eade 013c c3d0 b83a
00000130: c5ce d6bc 108f 5fbc af6e f0bc 739b 283c
00000140: 8d1e 113d 64a6 0f3c 8987 66bc d144 c53c
00000150: 4496 bf3c e133 b83b d0fd 0bbd 8a79 f5bb
00000160: 767f e5bc 8f49 3ebc 65c7 48bc 415b 153c
00000170: 7b03 05bb f3cb 31bc 728f 903b 3590 08bd
00000180: 70d6 fd3b 3be4 b53c 4324 8d3c 4519 773c
00000190: b9e9 463b 98dc 02bd 66d2 2d3c 5f1d 66bb
000001a0: 0b9f b13c c9ae 92bb 8d3d d6bc c86a f53c
000001b0: 03d4 0dbd 3e02 c33b 3f97 b8bb 1481 a2bc
000001c0: b376 cdbc 0e0a 47bc 4d54 87bc 2563 ed3c
000001d0: dbaf d13c eb25 163c aef1 68bc 4f05 9fbb
000001e0: 2502 ce3c 8a29 173c 19df 24bc eea8 f7bc
000001f0: 067b 4a3d b594 933c 157d 993b 5e7e 80b9
00000200: 41fc 02ba a0af f83a b354 af3c db20 7fbc
00000210: 63da cebc aa47 f5bc f3dc cd3a abad e0bc
00000220: 223e a5bb 5148 0d3c 85e4 483b 1544 25bd
00000230: 54c1 2fbc 7782 983a 0047 15bd 289a 803c
00000240: 18a0 2c3c 5461 f0bb 5eb1 a4bb c0a0 db3c
00000250: 01b7 8d3b a2a2 293d 94fd 61bb 9550 2e3c
00000260: b192 26ba 62d5 ad3c 75b6 5abc 2f29 30bc
00000270: 0698 ba3c c19b 9f3c 93b3 12bd 62fb c33c
00000280: 1329 923c b94c 393c a6e2 063c c729 2e3d
00000290: d806 2bbc c2ae 0b3c 5a3c f6bb c1a8 b0bc
000002a0: a792 5ebc 70aa 463d f0d9 f83a e0f9 acbc
000002b0: 9f26 a1bc 5137 19bc bc46 d0bc 3179 563c
000002c0: 7098 f63c 14ca 073c 806e 44bc fbb8 013d
000002d0: dd2f f23c 1617 163d 377b 4cbd a3c0 2dbc
000002e0: 874f 483b 7697 bbbb 84f5 03bd 4ce4 a63b
000002f0: 96a1 243a 10bb 3cbc 1002 dbbb bd17 08bd
00000300: 567c 783c 2c21 963c da41 c63c bea3 433c
00000310: f81c 373d a662 f8bc 9047 97bc 4b84 6abc
00000320: 4208 843c 7838 843b 3811 97bc c3fd ee3c
00000330: b25a eb3a 27cc 0f3b b8d1 3dbc a9d1 5dba
00000340: f527 e63c fdb5 843a 44ef c9bc c156 b13c
00000350: 0509 b33c 69b7 e53b 7f79 1ebb b951 12bc
00000360: dcf8 aa3c 9224 b53a 0ed0 7dbc a7b1 bc3b
00000370: b8f2 0ebd adef 883c 5f95 3abb aae5 ed3a
00000380: 15e7 96bb ccd1 233b 4b68 563d bfe5 693c
00000390: e8b9 0abd 4c11 e5bc 819a 49bc af69 81bc
000003a0: 5cd9 013c 539b 953c 5f63 d63c 54b1 37bd
000003b0: e11e 45bc a549 4ebc 0a70 edbc 5e5c 61ba
000003c0: e205 56bb 367a fbbb a97a 073c 70f7 43bc
000003d0: f034 5b3c bdb2 463d b6b3 2bbc 5e45 e13a
000003e0: d5d2 173c 9f21 a13c 7c13 38bc 9d13 1c3c
000003f0: 4133 e13c 1d99 953c 14c8 2bbd 65d0 3abc
