Weights/ca_model_pearl.pt (torch, 25349 bytes, 3 tensors)

w1.weight f4 [96, 48, 1, 1]
00000000: 9477 843d 6888 07bd dc2c bc3a 723f 863d
00000010: 38f4 193e 9590 f13c 37e8 d8bd 3b80 b9bd
00000020: f3a0 613e 91f4 dcbd 9d11 b33d 736f 6bbd
00000030: dbe2 4f3d 520d 94bd 0187 abbd d986 a8bd
00000040: 2e13 0f3e 525f db3d a14d d23c 5404 a2bc
00000050: 4c94 9dbd 67ad 2e3e d7f7 ddbd ee19 56bd
00000060: 4f1a 02be 951f 20be 8f57 0cbd 53b8 c3bc
00000070: 7798 2f3d 05cf 0abc 6ace e33d cd7a c63d
00000080: 6d6a 8f3d 8826 913c e286 adbd 3bf2 3b3d
00000090: a4f6 ce3d 4eae f3bd a8b2 033e 7f75 e6bc
000000a0: 9424 4abc 5e9e 9abc 7270 89ba 0b57 163e
000000b0: 3886 febd 17dc 04be 3b54 15bd b222 053d
000000c0: 2aa9 d2bb 961f 91bc 8ca1 283d 2496 9d3d
000000d0: 4e99 5a3c 724f b53d a067 323d c346 643d
000000e0: 9dcb 493e 9bc8 f93d c6e9 583a 24e3 cdbd
000000f0: 4a1a 153c a4c4 46be 2a61 823d 17b5 053d
00000100: 4951 97bd 9995 17bd 1f45 063e d7f2 1b3e
00000110: ae79 313d 8654 3b3e 0abf a93d 3f27 253d
00000120: 2c56 a0bd 9191 a2bc 7fcd d5bb 0232 b53c
00000130: 5a9e 5c3d a584 f83d 4cea 963d ffa7 a7bc
00000140: 31cc b2bd 29c0 f5bc 8191 e93d 10c0 9bbd
00000150: 6758 64bd 91e3 5c3d 7bb7 d8bd 7b15 19be
00000160: 57f3 0abd 001e cdbd e404 c33d 9339 febc
00000170: 23b5 5bbd cf18 a03d 10c3 6a3b 851f 03bd
00000180: b840 abbc 19e0 763d 251e 09bc 93a4 763c
00000190: 7083 273e 8f70 82bd d065 513d 8c8b 413c
000001a0: 472f 883d 9296 893c e94b 3abd 4bcd 053c
000001b0: d8cf e63d 83f0 22be 62f2 b53d 34ff 29bc
000001c0: a254 313d c720 00bd f856 cabd 8814 cebd
000001d0: 7dab 6d3d 2093 9e3c 4eb7 9e3d d071 14be
000001e0: 69f7 f13b 0d08 4cbd e26c 61bd 23b2 24bd
000001f0: f212 3fbd 5ca1 083e 0cea 9a3d 2600 80bd
00000200: 98a8 a6bd 5b37 45bd c496 983a 7284 0bbe
00000210: 0031 2eba ccde 283d 0da7 a63d 877f 593b
00000220: 17bb 75bd 4e32 08be 213f 18bd 1521 0b3d
00000230: 795e a73d 70bc 253e 63bd 383d 55ea 973d
00000240: 530b 683d cdc2 cf3d 94b7 d73d fb4e a63d
00000250: 823c 863d b5d1 ad3d b96a b0bd b386 2bbe
00000260: 75b9 4e3e 58ad dd3d 262b b63d 14bd 913d
00000270: 1536 a63d 23ee 1a3e 18cd 4cbd 586d cc3d
00000280: 35f8 e03d 40b2 bd3c ea9e 80bc 59e2 90bd
00000290: 7a17 a63d 2b3f 6cbe 874d 6abe b7da 313d
000002a0: 6f1a 1cbc af8c 153e 11d3 83bb 9a75 75bc
000002b0: bd14 7abd 0036 13bc bb68 df3d b135 a5bc
000002c0: 0b19 1f3c 5a71 3bbd 8627 a2bd 73e8 57bd
000002d0: 9f7e 063d 84d5 d2bd 11b0 8b3d 6d92 1fbe
000002e0: 2ef5 3e3c 6f3e 27be b838 97bd 8294 e83b
000002f0: 8c19 e93d 3eb6 1d3c 0e00 28be 6144 6abd
00000300: 8cb3 233e 0c3a 3a3e 0bc2 8bbd 35ca 13be
00000310: e3f8 77bc e4dc 103d 39aa be3d 82ec cc3d
00000320: 7fa7 9fbd 2f5b 233d 01ab 933d bfee fbbd
00000330: dbcd a0bd bf5f 163e 911d e13d e816 b8bc
00000340: c20b 423d d33e 11bd 5ffc 983c 1ac3 42be
00000350: 4c15 78bd 3af3 3dbe ecce ddbb e2eb 19bd
00000360: 66f3 b83d 70a1 393e 79b7 cebd c84a 9f3d
00000370: bcf9 abbd a532 4dbd 5981 403e 1617 02bd
00000380: 9e2c 803c b4ce a93d 5e67 32bc e22f 253d
00000390: 5ab5 f03d ce3a 25bd 3511 dd3d 8276 c23d
000003a0: 1295 3c3d 5435 46be 6499 ab3c 3f68 d9bd
000003b0: fc32 583b 8e1c c43d 2289 b53d 8278 0f3b
000003c0: 2d4a 22be 2e64 4cbb c869 873b 0afd 183e
000003d0: 9e09 273d 6e87 61bd 51b3 6d3d fabd f9bd
000003e0: be50 f3ba 55ce b7bc acf9 dbbd 1403 cd3d
000003f0: c742 b53d ab90 dd3d 7f00 e1bc 18f4 393e
0.0646812 -0.03308907 0.0014356631 0.0655507 0.15034568 0.029487887 -0.105911665 -0.09057661
0.22034054 -0.10788835 0.08743594 -0.057479333 0.050753456 -0.07229103 -0.08375359 -0.08228845
0.1397216 0.1071154 0.025671782 -0.019777454 -0.07694301 0.17058335 -0.10838287 -0.052270822
-0.12705348 -0.15637048 -0.03426319 -0.023891604 0.04287001 -0.008472209 0.11123355 0.09691391
0.07002721 0.017718568 -0.084729925 0.045885306 0.10105637 -0.1189848 0.1286112 -0.028132198
-0.0123378225 -0.018874343 -0.0010485782 0.14681642 -0.12427944 -0.12974583 -0.03645728 0.03250379
-0.0064288573 -0.017715257 0.041169688 0.07694653 0.013342215 0.088530436 0.043555856 0.055731546
0.19706579 0.121964656 0.0008274581 -0.10053089 0.009100506 -0.1941095 0.06366189 0.032643404
-0.07388551 -0.0370079 0.13112305 0.15229355 0.043328933 0.18293962 0.08288391 0.04032063
-0.07828936 -0.019844802 -0.006524741 0.022118572 0.053861953 0.12134675 0.07368907 -0.020465849
-0.08730353 -0.029998856 0.11404706 -0.076049924 -0.05574837 0.05392796 -0.10581871 -0.149496
-0.033923473 -0.10015488 0.09522417 -0.031033313 -0.053639542 0.07817232 0.0035821833 -0.03201248
-0.020904884 0.06027231 -0.008369003 0.015053886 0.16358733 -0.06369125 0.051122487 0.011813056
0.066496424 0.01679543 -0.04548255 0.008166621 0.11270112 -0.1591206 0.088841215 -0.010375787
0.043293603 -0.03128126 -0.09879869 -0.1006251 0.058024872 0.019357264 0.07749806 -0.14496541
0.00738423 -0.049812365 -0.05503548 -0.040208947 -0.046648927 0.13342804 0.07564172 -0.06250028
-0.081376255 -0.048148494 0.0011641611 -0.13624743 -0.0006644875 0.0412281 0.08137331 0.0033187584
-0.059992876 -0.1330044 -0.03716958 0.033967096 0.08172316 0.16185164 0.04510249 0.07417742
0.056651425 0.10144577 0.105330616 0.08120533 0.0655451 0.08487264 -0.08614106 -0.16750602
0.20187934 0.10824078 0.08894949 0.07116142 0.08115784 0.15129904 -0.05000028 0.09981793
0.10984842 0.023156285 -0.015700776 -0.070744224 0.081099465 -0.23070972 -0.22881137 0.043421473
-0.009527787 0.14604448 -0.004022964 -0.014981652 -0.061054934 -0.008985043 0.109086476 -0.020167204
0.009710561 -0.045762397 -0.07917695 -0.052711915 0.0328356 -0.10294631 0.068206914 -0.15583201
0.011655135 -0.1633241 -0.07383865 0.0070977816 0.11381826 0.009625969 -0.16406271 -0.057194117
0.1598646 0.18186206 -0.0682412 -0.14432605 -0.015135023 0.035366908 0.09309811 0.10006048
-0.07795619 0.03988188 0.07210351 -0.123013966 -0.07851764 0.14684962 0.109919675 -0.02247186
0.047374494 -0.035460304 0.018675027 -0.19019738 -0.060567185 -0.18549815 -0.006769052 -0.03757847
0.090307996 0.1812799 -0.100935884 0.07777935 -0.083972424 -0.050097127 0.18799342 -0.031760298
0.015646275 0.082913786 -0.0108889025 0.040328868 0.1175334 -0.040339284 0.107942976 0.0949526
0.046040602 -0.1935628 0.020947166 -0.106155865 0.0032989373 0.09575759 0.08864047 0.0021891897
-0.15848608 -0.0031187641 0.004132483 0.14940277 0.040780656 -0.055060796 0.058032338 -0.12194438
-0.0018563492 -0.022437254 -0.107409805 0.10010353 0.088506274 0.10818609 -0.027466057 0.1815952

w1.bias f4 [96]
00000000: d0aa c6bd 84db 02be e38a 9d3d 0d3e a0bd
00000010: 98e6 e2bd b2ae d5bd 6129 69bc 5242 3b3c
00000020: 5e4f ce3b f54b ecbd e191 8a3d d0c8 36bc
00000030: ecc5 e73c 9d6b c63d 65b3 143d 1601 e33d
00000040: 8591 b13d 846d 0cbe 198e 033e e251 f6bd
00000050: 6632 863d a835 80bd 749b b2bc b8f0 71bd
00000060: 768d 8c3d d7ab 013c dc02 a53d e171 133e
00000070: 6e0c 9bbd 3659 a93d caaa 533d 7cd0 acbd
00000080: 91f5 0ebe 01ef a43d ba2e 10be b87d 3d3d
00000090: e0e6 b3bd 1649 173e 6909 f7bd d3ec 213d
000000a0: beb8 0c3e 8511 41bd 0a55 f63d c53f 1239
000000b0: 6b23 70bd 9452 2439 2c97 ae3b 6667 f53d
000000c0: 9cc3 553d c6bc df3b 5b27 15bd 944f df3c
000000d0: 2ac2 e3bd 82ae b4bb e6f3 a43d 042a 4cbd
000000e0: 168d d0bd 5f27 003e 5d94 8bbd 1be1 fb3c
000000f0: 55a3 e63d 7159 4fbd e5a9 eebd cbf1 fabd
00000100: 2660 abbd f837 2a3d cd9c 713c 5203 af3d
00000110: ef36 ce3d bf66 05be ea41 7c3d e569 4cbd
00000120: 2589 d2bd a709 0c3c d20f 8b3d 03df b93d
00000130: 5d7f 12be f885 babb c0ef 8d3d 8a69 063e
00000140: cf66 0fbd 13f3 39bd 794d 8cbb 69f3 1f3d
00000150: c33b 5c3d 468d 07be 16d1 343d 1547 65bd
00000160: 09be ef3d b190 09bd df69 ae3d a2f8 8b3c
00000170: 82d9 c4bd 8f71 ab3d 9660 97bd a25d fd3d
-0.09700549 -0.12779051 0.07692506 -0.07824335 -0.110791385 -0.10433711 -0.014231057 0.011429386
0.0062960824 -0.11537925 0.067661054 -0.011156276 0.028292619 0.09688494 0.036303896 0.110841915
0.08670334 -0.13713652 0.12847175 -0.12027337 0.065525815 -0.06260234 -0.021802641 -0.059067458
0.06862919 0.007914505 0.08057186 0.1439891 -0.0757073 0.08268969 0.05167655 -0.08438203
-0.13960864 0.08053399 -0.14080325 0.046262473 -0.0878427 0.14773974 -0.12062342 0.039532494
0.13742349 -0.04713585 0.12027939 0.00013947401 -0.058627527 0.00015671022 0.0053280797 0.11982612
0.0521885 0.0068279235 -0.036414485 0.027259625 -0.11121018 -0.005513967 0.080543324 -0.049844757
-0.1018316 0.12515019 -0.068154074 0.030746987 0.11261622 -0.050622407 -0.116534986 -0.122531496
-0.08367948 0.041557282 0.014746857 0.08545555 0.100690715 -0.13027476 0.061586298 -0.049905676
-0.102800645 0.008547223 0.06790127 0.09075739 -0.14306398 -0.00569224 0.06930494 0.13126197
-0.035010155 -0.04539783 -0.0042816964 0.039050493 0.05376793 -0.13237485 0.044144712 -0.055975992
0.11706168 -0.033585254 0.08516287 0.01708633 -0.09611799 0.08371269 -0.07391469 0.12371375

w2.weight f4 [12, 96, 1, 1]
00000000: 1fda 9dbc d046 e6ba 3369 27bb a2e3 a2bc
00000010: 9071 0dbd 7c98 c83c 76af 7abc 8272 543c
00000020: 2cf9 a6bb 4da2 a53c 0bc2 643c 4b22 98bb
00000030: 72b7 853b 4a82 d33c 40b4 093d 25bf ce3b
00000040: 24da 003d 0a64 d33c a3aa d4bb db05 40bc
00000050: 8629 c93b 2593 18bc 0a55 fb3a 2112 debb
00000060: d3ba ab3b 4943 08bc 4348 603c 58ae f2bb
00000070: c354 b53a 8370 3d3a 6dc3 2d3b 4bef 97bc
00000080: 5e4e 033d 976a 263b 15bd 56bc 3d6f 89bb
00000090: f45c a1bb 9ac7 89bc 082e bcbc 1609 16bd
000000a0: b1f5 273c 2bd5 8cbb 43fa 9fbc 6070 e2b7
000000b0: 232a 21bd f4c8 6a3c 5e2b 963a cc72 1cbd
000000c0: 6ded aa3c 542a d8bc af49 e1bb 2b23 e0bc
000000d0: 875b 0e3d 73c1 c0bc 1915 da3c 42f5 4bbc
000000e0: acc1 8f3c ff91 45bc 8980 8dbc dc1d 31bc
000000f0: 5c65 9f3c 629d bfbc 3ef2 6f3c e96e 023c
00000100: 7642 7fbc a5de 15ba b0e5 7a3c 8616 eeba
00000110: 5536 7cbc a617 083d 16d8 c4bc 8aee 32bc
00000120: aa4d 603b b158 2abd 7019 7dbc 2118 aebc
00000130: b02e c3bc 74d9 a6bb 6fef 46bc fb94 313c
00000140: 6ac7 0e3d e6e8 4d3c d3ac 37bc 6c96 d3bb
00000150: 0f3a b33c ddf8 c43c 0918 923c 218f 013c
00000160: db95 7d3c 6357 2b3a 94e1 fcbb 0997 9fbb
00000170: b7b0 b2bc 8ce9 5f3d 0f7c dcbc a01a b93c
00000180: d374 b4bc 7894 8cbb b63b a3bc 7127 babc
00000190: 8dae eabc 7cd8 d63b 1082 02bc a2fc a33b
000001a0: fa6d 1dbc 387a be3c afa2 663c ac2d ffbb
000001b0: 00ca 863b 5d46 ab3c d5ca 3e3d bb95 923b
000001c0: 610f f9b9 741b e23c 1758 2f3d 4fdc 2ebc
000001d0: 6b0c 0c3c 1837 493b 7c3f 79bc df4a 09b9
000001e0: f425 8d3b 4965 abbb 598f f1bc aed5 82bc
000001f0: 0cb3 273c ffcc 4ebb 2ed2 ad3a 83a6 88bc
00000200: 224a 0c3d 2efb 40bc 2522 92bc 69e0 e0bb
00000210: 17b6 24bc 3e85 e9bc bd20 afbc c98a 10bc
00000220: 91e3 b33b bdeb b8bb 0408 5abb fd9c 96ba
00000230: 9968 1bbd 8fc5 d83b e4ed d23b 0944 25bd
00000240: d6d5 79bb 9b36 0c3d db7b 9dbc 786e c5bc
00000250: ba4a 1a3d 73ba bb3b 9d0e 50bc 76c9 36bc
00000260: b023 8f3c bccb c83c c699 4fbc f8e8 00bc
00000270: e42d 8e3c 8a5e cfbc 795d 943c d1c6 e43b
00000280: 50ff aebc ccb6 c4ba e265 6b3c f34a eb39
00000290: babc 113c 491a 123d 6a21 b63c 8ded 79bc
000002a0: 3dfd 873b dee7 f3bc d1aa a1bc 7af9 14bc
000002b0: fed0 c7bc 52b7 a6bb a761 46bc ad14 603c
000002c0: f798 143d af30 cb3c 13b2 47bb d5d6 b7ba
000002d0: 9e32 1c3d 70f5 e63c 6ef0 b33c 6cc0 023c
000002e0: 5462 8e3c a276 833b c2bb a8bc 775f 10bc
000002f0: 1a6e a1bc 4077 873b 5b40 d0bc 3ae9 ca3c
00000300: 1a72 98bc b291 01bb aed9 35bc a483 adbc
00000310: 3168 05bd c2a8 783c d72b 9bbc 0e09 e23c
00000320: 7328 e3bb 27b5 af3c a999 bf3c d9fd 9e3b
00000330: 41ca c6b9 ad6b c83c f5c1 e23c 437a 703c
00000340: 5b56 933b d6bb db3c ae0f ac3b 6838 3fbc
00000350: 7f9b 983b 57bc 1fbc e6a9 1a3d e5c3 26bc
00000360: 482e 2b3c b210 51bc 2ef1 28bc b99e fe3b
00000370: fe2a 6b3c 0c86 8bbc f28e 9f3a c55a b1bc
00000380: 68cf 003d 96c1 29bd b6ee 7fbc 4e83 a6ba
00000390: 1942 cfbb 2264 183c c9b9 b0bc be9e 90bc
000003a0: 2da8 703c b91e d1ba 8ff9 f239 1caf efbb
000003b0: 02ca 2cbd ffcd d13c d678 323c 55c3 b8bc
000003c0: b7c3 943c e827 7c3c 53d1 f23a 5e7b debc
000003d0: 25db e23c 904f 02bd 12cb e03c 648f aebc
000003e0: 0b4c c03b 81f9 193d 3d79 97bc cd20 5bbc
000003f0: add8 61bc f327 9dbc 236e 8a3a 1d86 9c3b
-0.019269047 -0.0017568711 -0.0025544881 -0.019883934 -0.03453213 0.024486773 -0.015300622 0.012966754
-0.0050956216 0.020218993 0.013962279 -0.00464276 0.0040807063 0.025818963 0.033619165 0.0063094073
0.031458035 0.025804538 -0.006490068 -0.011720146 0.006138983 -0.009312426 0.0019175124 -0.0067770635
0.005240777 -0.008316823 0.013689104 -0.0074060373 0.0013834465 0.00072265434 0.0026514188 -0.018546721
0.03205716 0.0025393122 -0.013106604 -0.004194169 -0.004924411 -0.01681881 -0.022971168 -0.03662976
0.0102514485 -0.0042978725 -0.019528514 -2.6993628e-05 -0.039346825 0.0143301375 0.0011457016 -0.038195416
0.020865167 -0.026387371 -0.006875239 -0.02736052 0.034755256 -0.023529744 0.026621388 -0.012448611
0.017548405 -0.012058734 -0.017273204 -0.010810342 0.019457512 -0.023390476 0.014645157 0.007961013
-0.01557981 -0.00057170755 0.015313551 -0.0018164671 -0.015393813 0.033225678 -0.024028819 -0.01092113
0.003422598 -0.04158849 -0.015447959 -0.02125174 -0.023825973 -0.0050918404 -0.012142046 0.010838742
0.034858145 0.012567734 -0.011210638 -0.0064571407 0.02187827 0.024044449 0.017833726 0.00790766
0.015477623 0.0006536154 -0.0077173207 -0.0048702997 -0.02181278 0.054666087 -0.026914624 0.022595704
-0.022028362 -0.00429016 -0.019925933 -0.022723885 -0.028647685 0.0065565687 -0.00796558 0.0050044814
-0.00960874 0.023251638 0.014076873 -0.007787427 0.0041134357 0.020907575 0.046580154 0.0044734157
-0.0004750444 0.027600981 0.04280862 -0.010672643 0.008547883 0.0030703004 -0.01521289 -0.0001309323
0.004307503 -0.00523058 -0.029487299 -0.015971031 0.010235559 -0.0031555293 0.0013261491 -0.016680961
0.034250386 -0.011778636 -0.017838547 -0.0068626893 -0.010053179 -0.028505918 -0.021377916 -0.008822151
0.0054897745 -0.0056433366 -0.0033268938 -0.0011490878 -0.03794155 0.0066153477 0.00643705 -0.040348087
-0.003812184 0.034231763 -0.019224098 -0.024100527 0.03766892 0.0057290136 -0.012698797 -0.0111564305
0.017473072 0.02451121 -0.01267094 -0.007868044 0.017355867 -0.025313634 0.018110977 0.0069817086
-0.021361977 -0.0015008091 0.0143675525 0.00044878534 0.008895094 0.0356696 0.02223273 -0.01525439
0.0041500614 -0.029773649 -0.019734772 -0.009092683 -0.024391647 -0.0050877715 -0.012108243 0.0136768045
0.03627869 0.024803488 -0.003047113 -0.0014025817 0.03813421 0.028193206 0.021965232 0.007980447
0.01738087 0.004011945 -0.020597342 -0.008811823 -0.01970582 0.0041340888 -0.025421312 0.024769414
-0.018609095 -0.001977068 -0.011099262 -0.021180935 -0.032570068 0.015176954 -0.018941803 0.027592208
-0.006932312 0.021448685 0.0233887 0.0048520383 -0.00037916194 0.024465406 0.027680377 0.014677587
0.0044963784 0.026822966 0.0052508926 -0.011671163 0.0046572085 -0.009749494 0.037759684 -0.010178541
0.010448046 -0.012760328 -0.010311408 0.007770386 0.014353512 -0.017031692 0.0012173338 -0.021649728
0.031447798 -0.041444384 -0.015620878 -0.0012703927 -0.006325018 0.009301217 -0.021572964 -0.01765382
0.014688534 -0.0015954591 0.00046343773 -0.007314576 -0.042184837 0.025610922 0.010893067 -0.02255408
0.01815973 0.015390374 0.0018525518 -0.027158435 0.027692387 -0.031814158 0.027440581 -0.021308608
0.00586844 0.03759146 -0.018490428 -0.01337452 -0.01378457 -0.019184088 0.0010561388 0.0047767297
