Weights/ca_model_fbm_ero.pt (torch, 25363 bytes, 3 tensors)

w1.weight f4 [96, 48, 1, 1]
0.00011826993 0.07895891 0.12796341 0.010939632 -0.068139814 0.05644198 0.023088641 -0.12441145
0.045345236 -0.064659216 -0.11784971 -0.12983537 -0.10095211 -0.06542664 0.039393686 -0.018952124
-0.1446198 0.058890402 0.073778845 0.068397336 -0.04556282 0.10933521 0.05075318 -0.10939659
0.029570665 0.023794102 0.096751325 0.060715932 -0.0042906962 0.11440304 0.02670466 -0.08387715
0.08160201 -0.06947647 0.035214722 0.058670487 0.03759088 0.10159088 0.050712094 -0.032841492
-0.08074854 -0.093717515 0.17148192 0.03374829 0.0605059 -0.0694246 0.040275414 -0.10352068
-0.066469006 0.079510696 -0.043746136 -0.03454406 -0.15752956 0.0035893547 0.10223215 0.07771622
-0.10575362 -0.05581379 0.08501396 0.104931824 -0.0913854 0.08328973 0.023729218 -0.13156965
0.061475273 0.023467626 0.090073235 0.11923306 -0.019481722 0.04851055 -0.11803808 0.10636419
0.13157098 -0.09382778 0.15679039 0.05830181 0.12341194 0.04449602 0.013814588 -0.010259987
0.14612362 0.06389802 0.078942165 -0.055381984 0.0036241387 0.097095914 -0.061819136 -0.04455923
0.10871052 -0.09855664 0.0031670886 0.072538815 0.04666326 0.031912763 -0.1486279 -0.022310918
0.11284695 -0.061280336 0.030012134 0.07936851 0.060541637 0.048331346 -0.025993219 0.049297184
-0.2536057 -0.061103866 0.028966434 0.078090295 -0.060963087 -0.042191412 -0.046958745 -0.1448169
0.09494825 0.025228286 0.0009122004 -0.086495236 -0.09097941 -0.00075709645 -0.005566941 0.044697087
0.08996359 -0.034101177 0.015003525 -0.096019745 -0.031168636 -0.110972956 0.025781574 -0.06136258
0.06778101 -0.0026764828 -0.03615673 -0.15138133 0.0012479571 0.032748435 -0.052197374 -0.008851942
-0.04578127 0.07168609 -0.14314647 0.119912036 0.13150512 0.0042783106 0.06942687 -3.9203896e-05
-0.032516222 -0.0804401 -0.120493874 -0.11055358 -0.17037623 -0.073721975 0.045991816 0.07498333
-0.07070127 0.08190936 -0.087812044 0.07276078 0.08053947 0.022029253 -0.045975257 0.091288365
0.105776906 0.0031169013 -0.0941326 -0.01528175 -0.0922804 0.01484357 0.03329145 0.067132
0.019934582 0.063788235 0.077694565 0.008110818 0.032751173 0.09832817 0.02457193 -0.019525
-0.06509226 0.03376437 -0.08721023 -0.024387075 -0.0036993336 -0.13296513 0.00015276701 0.085561246
0.03446234 0.07291407 -0.08010097 -0.079584524 0.021095296 -0.0023844463 -0.009569026 0.016308902
0.0634898 0.0016407503 -0.109176815 -0.12300694 0.036489926 0.04401958 0.017267613 -0.10149844
-0.19213949 -0.09388238 0.063530184 0.03929126 0.030947855 0.13533364 -0.10475836 -0.012818824
-0.037614398 -0.0047936095 -0.035917845 0.09289813 0.030308077 -0.11424222 0.09744765 -0.10423574
-0.06200896 0.007462175 0.059977878 0.020729026 0.12460226 0.12302134 -0.0031684083 -0.16024223
-0.09778627 -0.124977335 0.0077783195 0.08527691 -0.12859483 0.027416913 -0.048202813 -0.012054437
0.08099984 -0.17597081 0.05219858 0.040391874 0.087458976 0.022051413 -0.00022771485 -0.09542355
-0.027622659 0.0853609 -0.068350464 0.14987364 -0.056392197 0.00924752 -3.978305e-05 -0.079692736
0.12573005 0.14406174 -0.01869729 -0.08235059 0.09903666 -0.010277363 -0.13360645 0.052730385
00000000: af07 f838 36b5 a13d d708 033e 243c 333c
00000010: e38c 8bbd b52f 673d 6424 bd3c 6ecb febd
00000020: edbb 393d 0d6c 84bd 305b f1bd 90f3 04be
00000030: fbbf cebd 67fe 85bd 465b 213d 7c41 9bbc
00000040: 3617 14be 1037 713d 5d19 973d e713 8c3d
00000050: 14a0 3abd 23eb df3d 91e2 4f3d 520b e0bd
00000060: 2e3e f23c d9eb c23c 8f25 c63d 45b1 783d
00000070: f898 8cbb 244c ea3d bbc3 da3c c9c7 abbd
00000080: f41e a73d ae49 8ebd 503d 103d 7750 703d
00000090: e5f8 193d e10e d03d 7cb7 4f3d cd84 06bd
000000a0: 7e5f a5bd f8ee bfbd f598 2f3e a63b 0a3d
000000b0: 09d5 773d 7c2e 8ebd d5f7 243d a602 d4bd
000000c0: e720 88bd 81d6 a23d 262f 33bd 127e 0dbd
000000d0: 6e4f 21be 613b 6b3b 175f d13d ae29 9f3d
000000e0: 5b95 d8bd 009d 64bd cd1b ae3d 7fe6 d63d
000000f0: 4528 bbbd ce93 aa3d c763 c23c 32ba 06be
00000100: 7fcd 7b3d 2e3f c03c 5178 b83d 7630 f43d
00000110: 2298 9fbc 00b3 463d f3bd f1bd 78d5 d93d
00000120: 8bba 063e c728 c0bd a98d 203e e1cd 6e3d
00000130: 66bf fc3d 7541 363d 9556 623c 8119 28bc
00000140: 6ea1 153e f7dc 823d 6eac a13d 38d8 62bd
00000150: f582 6d3b 39da c63d 1036 7dbd bd83 36bd
00000160: 9fa3 de3d 10d8 c9bd ee8e 4f3b 3b8f 943d
00000170: f921 3f3d f5b6 023d ea31 18be 63c5 b6bc
00000180: 4d1c e73d 1701 7bbd 02dc f53c f58b a23d
00000190: 82fa 773d 17f7 453d bbef d4bc d8eb 493d
000001a0: 9bd8 81be 0c48 7abd 044b ed3c ceed 9f3d
000001b0: 6eb4 79bd e7d0 2cbd d057 40bd e24a 14be
000001c0: 3a74 c23d 8dab ce3c bc20 6f3a 6a24 b1bd
000001d0: 6a53 babd e277 46ba e36a b6bb 4b14 373d
000001e0: d53e b83d adad 0bbd 58d1 753c 00a6 c4bd
000001f0: 5e55 ffbc ca45 e3bd e133 d33c 5457 7bbd
00000200: c5d0 8a3d ee67 2fbb 1419 14bd b503 1bbe
00000210: 7e92 a33a 3923 063d eacc 55bd bc07 11bc
00000220: 2485 3bbd 28d0 923d fd94 12be 7194 f53d
00000230: 47a9 063e 1231 8c3b ad2f 8e3d dd6e 24b8
00000240: bb2f 05bd c7bd a4bd 7ec5 f6bd ea69 e2bd
00000250: 1b77 2ebe 8cfb 96bd ea61 3c3d dc90 993d
00000260: d4cb 90bd 18c0 a73d cdd6 b3bd 9b03 953d
00000270: e1f1 a43d b176 b43c 8d50 3cbd 65f5 ba3d
00000280: 90a1 d83d ed44 4c3b 98c8 c0bd 4e60 7abc
00000290: 82fd bcbd 7232 733c 9e5c 083d 817c 893d
000002a0: d94d a33c 68a3 823d 541e 9f3d 3de3 043c
000002b0: 1826 063d 4860 c93d 124b c93c e5f2 9fbc
000002c0: 174f 85bd 824c 0a3d 479b b2bd 67c7 c7bc
000002d0: 8570 72bb 0328 08be 1530 2039 bc3a af3d
000002e0: 6228 0d3d f953 953d fa0b a4bd 36fd a2bd
000002f0: 0bd0 ac3c 5f44 1cbb 67c7 1cbc 3f9a 853c
00000300: f106 823d 720e d73a 1898 dfbd 10eb fbbd
00000310: 7676 153d e04d 343d cf74 8d3c 6ade cfbd
00000320: 37c0 44be 6845 c0bd 1d1c 823d dfef 203d
00000330: 5b86 fd3c e794 0a3e 8d8b d6bd 0b06 52bc
00000340: 8e11 1abd b613 9dbb 971e 13bd 6041 be3d
00000350: a548 f83c d3f7 e9bd a292 c73d 8c79 d5bd
00000360: 1bfd 7dbd 4385 f43b 5dab 753d ebcf a93c
00000370: 782f ff3d 9df2 fb3d 12a5 4fbb 8a16 24be
00000380: 2b44 c8bd 1ef4 ffbd 46e1 fe3b a9a5 ae3d
00000390: 5dae 03be 6f99 e03c 5070 45bd f97f 45bc
000003a0: 3ee3 a53d b131 34be 2ece 553d f371 253d
000003b0: b11d b33d 2aa5 b43c bdc6 6eb9 6c6d c3bd
000003c0: ea48 e2bc b2d1 ae3d 54fb 8bbd 7a78 193e
000003d0: 81fb 66bd e982 173c badc 26b8 f235 a3bd
000003e0: 61bf 003e ec84 133e 0f2b 99bc 6da7 a8bd
000003f0: bbd3 ca3d 6262 28bc 21d0 08be d1fb 573d

w1.bias f4 [96]
0.024169093 -0.08485887 -0.01406779 -0.07946556 0.05474121 -0.13801357 0.022099782 -0.09561737
-0.0028893629 0.013672655 -0.12381 0.05997612 -0.041024715 -0.09600619 -0.045979206 0.03745803
0.10255555 0.028804908 -0.054260585 0.1179568 0.055208202 -0.04135321 -0.045161758 0.12963812
-0.13489728 -0.02097332 -0.039122317 0.010427378 -0.094130956 -0.09105731 -0.098808035 -0.02102755
0.080384076 -0.06978162 -0.11128906 0.05816231 0.07196358 0.01599982 -0.059315167 0.075164385
0.009888714 0.011262019 0.020389602 -0.04631738 0.037391398 0.028645609 -0.10641659 0.0638488
-0.010250258 -0.016135518 -0.016861357 0.09597331 -0.059022225 -0.064473875 -0.10140321 0.067672074
-0.09942411 -0.02392479 0.05499295 0.0012504081 0.008579253 0.116440706 0.060796723 0.034686442
0.0835027 -0.092632405 -0.025424566 0.05816116 -0.022560453 0.11141179 0.09007995 0.07094216
0.040097654 -0.10360738 0.05807866 0.05576442 -0.021556472 -0.08983054 0.11898002 0.065661415
-0.07282625 0.097782455 -0.014372062 -0.13042909 -0.046669815 0.07023186 0.10717836 0.04668235
-0.022749351 0.0395381 -0.032446124 0.10769279 -0.10914693 0.022794044 -0.05484626 0.11089457
00000000: 43fe c53c 7dca adbd 967c 66bc d7be a2bd
00000010: 5238 603d 6e53 0dbe 9a0a b53c 0ad3 c3bd
00000020: 775b 3dbb 4603 603c 1990 fdbd 85a9 753d
00000030: 8809 28bd e59e c4bd b154 3cbd 976d 193d
00000040: a508 d23d 45f8 eb3c 5940 5ebd 5693 f13d
00000050: ff21 623d fc61 29bd 89fb 38bd dbbf 043e
00000060: 8322 0abe 3dd0 abbc b93e 20bd 98d7 2a3c
00000070: bbc7 c0bd 417c babd de5b cabd f841 acbc
00000080: 68a0 a43d aae9 8ebd 85eb e3bd 9a3b 6e3d
00000090: a461 933d 0e12 833c 76f4 72bd c9ef 993d
000000a0: 4604 223c 5584 383c 1808 a73c 4bb7 3dbd
000000b0: b927 193d 32aa ea3c f1f0 d9bd 29c3 823d
000000c0: b3f0 27bc a22e 84bc d420 8abc a88d c43d
000000d0: 4ac1 71bd e10a 84bd 7cac cfbd a897 8a3d
000000e0: de9e cbbd ecfd c3bc 4a40 613d bce4 a33a
000000f0: ff8f 0c3c 7778 ee3d fc05 793d 5f13 0e3d
00000100: 7703 ab3d 0fb6 bdbd 2e47 d0bc 663a 6e3d
00000110: b3d0 b8bc dd2b e43d d67b b83d 204a 913d
00000120: 703d 243d 1b30 d4bd e4e3 6d3d 3c69 643d
00000130: 3397 b0bc 13f9 b7bd ccab f33d 7e79 863d
00000140: ee25 95bd 2b42 c83d cc78 6bbc 348f 05be
00000150: d928 3fbd b9d5 8f3d 5480 db3d fe35 3f3d
00000160: d95c babc b4f2 213d 3ae6 04bd 0a8e dc3d
00000170: 6d88 dfbd 93ba ba3c 79a6 60bd b11c e33d

w2.weight f4 [12, 96, 1, 1]
-0.019815546 0.049678 -0.0006134876 0.0034570664 -0.016250232 0.009451746 0.0015895953 0.011955846
-0.003745077 0.024780823 0.012105389 0.004958771 0.013887375 -0.013040593 0.018992659 0.008703263
-0.006721937 -0.013424532 0.0044508837 0.0064153816 -0.019860389 0.0017782439 0.004594406 -0.004936895
-0.005323651 0.007305962 0.009100749 0.024942352 0.008485812 -0.0011223323 -0.007459283 0.009630529
-0.01736057 -0.0014948469 0.04835956 -0.0004964793 -0.005711886 0.01509542 -0.042599443 -0.04436634
-0.021566665 -0.020589823 0.043722056 0.0051490706 -0.013374939 -0.013476927 0.018381327 -0.017747618
0.05341531 0.011759818 0.005635557 0.012570693 0.008042969 -0.0664585 0.017430192 -0.01309223
0.037872177 0.03622781 -0.009221909 0.043195423 -0.048221696 -0.024718981 0.010621704 0.0017787637
-0.021624569 -0.0072350833 0.009029048 -0.025012849 0.016825885 -0.014764936 -0.007586335 -0.0062431367
-0.0045957174 -0.005650048 -0.007256681 -0.035338987 0.020933328 -0.06449293 0.0019386263 0.00040489092
0.014136347 -0.00764849 0.0047966703 -0.019567482 -0.019795947 -0.0050045354 -0.014589699 0.029260395
-0.013294119 0.015806418 0.011714637 -0.009110869 -0.015507725 0.010806152 -0.008944796 -0.040746283
-0.011020177 0.046585187 0.004731896 0.016518181 -0.01933026 0.006551616 -0.0027998744 0.00810314
0.004979261 0.016831081 0.002583701 0.024371736 0.001801875 -0.018353079 0.020551918 0.006864004
-0.014706017 0.025128167 -0.006961901 -0.0009461963 -0.026419863 0.010837172 0.003271573 -0.0025297303
0.002764205 0.0045763664 0.0052131494 0.039004017 0.007950653 -0.012466767 -0.008434026 0.006387235
-0.016691517 0.008365406 0.046299227 -0.022641517 -0.009648151 0.006296157 0.04106602 -0.027214834
-0.012645142 -0.013478663 0.024329828 0.007560036 -0.007328399 0.013838848 0.008040054 -0.0212961
-0.033321533 0.031425893 -0.010704461 0.027147613 0.0040363804 -0.057304896 0.008445848 -0.010865685
0.04242797 0.047296785 -0.0026679034 0.033749554 0.032669347 0.019994406 -0.0076877433 -0.0028372726
-0.019808052 -0.0068183225 -0.00023921937 -0.027735446 0.0129716145 -0.02100374 -0.013177756 -0.028941521
-0.014070307 -0.0003615933 -0.0066187507 -0.024345528 0.012420467 -0.054965064 0.009041058 -0.003242513
0.005637435 -0.002393154 0.009862672 -0.029109346 -0.020647394 -0.0051592365 -0.01686684 -0.023753693
-0.020809919 -0.02887478 9.5581796e-05 0.0016331081 -0.008080619 0.03077553 -0.022323327 -0.02349751
-0.02567333 0.051473524 0.037222575 -0.0006825866 0.015203324 0.0015149671 0.002869581 0.011591027
-0.0130929705 0.03189056 0.006900012 -0.025938446 0.010945634 -0.0143670635 0.016952813 0.008386805
-0.0092057735 -0.009919361 -0.00893008 0.004698389 -0.012273809 0.01027454 -0.012616565 0.00068105344
-0.0135732265 0.012536792 0.0112093715 0.030061008 0.009993541 -0.020949394 0.00014094925 0.0029817251
-0.022908585 -0.013858933 0.050536234 -0.012924721 -0.011500838 0.007562938 0.015305291 -0.03785694
-0.021273684 -0.024586936 0.005021822 0.0025796236 -0.022069376 -0.021566218 0.021709768 -0.00017965444
0.026706 0.017186947 0.015087278 -0.021940341 0.008120902 -0.068826415 0.012045604 -0.013108377
0.03702432 0.036837675 -0.04270774 0.042067762 0.018531818 0.001460171 -0.035864726 -0.014032515
00000000: 3654 a2bc 297b 4b3d 75d2 20ba f38f 623b
00000010: 351f 85bc 7fdb 1a3c f859 d03a 74e2 433c
00000020: f76f 75bb 2701 cb3c ae55 463c 307d a23b
00000030: df87 633c 36a8 55bc 7e96 9b3c 2198 0e3c
00000040: b243 dcbb 91f2 5bbc b8d8 913b 1f38 d23b
00000050: 41b2 a2bc f713 e93a ac8c 963b adc5 a1bb
00000060: 0572 aebb da66 ef3b 4f1b 153c e753 cc3c
00000070: 1308 0b3c 391b 93ba 006d f4bb 5ec9 1d3c
00000080: c137 8ebc bdee c3ba ad14 463d 2926 02ba
00000090: c62a bbbb c852 773c c17c 2ebd 7bb9 35bd
000000a0: 93ac b0bc fdab a8bc e615 333d 89b9 a83b
000000b0: 8f22 5bbc 54ce 5cbc 7094 963c 7463 91bc
000000c0: 03ca 5a3d 40ac 403c 7baa b83b 4ff5 4d3c
000000d0: a8c6 033c 651b 88bd c3c9 8e3c cb80 56bc
000000e0: db1f 1b3d 9d63 143d 7d17 17bc afed 303d
000000f0: 1d84 45bd 767f cabc a806 2e3c 6825 e93a
00000100: 0226 b1bc 4714 edbb 92ee 133c bfe7 ccbc
00000110: 70d6 893c a1e8 71bc ca96 f8bb 3a93 ccbb
00000120: ac97 96bb 0a24 b9bb 74c9 edbb 9dbf 10bd
00000130: 5f7c ab3c df14 84bd 8119 fe3a 8a47 d439
00000140: 239c 673c 2fa0 fabb 632d 9d3b fc4b a0bc
00000150: 1c2b a2bc 16fd a3bb a209 6fbc 7fb3 ef3c
00000160: 94cf 59bc 767c 813c c0ee 3f3c c145 15bc
00000170: 1d14 7ebc 490c 313c 328d 12bc 93e5 26bd
00000180: f98d 34bc 1cd0 3e3d 050e 9b3b 2351 873c
00000190: 7e5a 9ebc f0ae d63b 197e 37bb 08c3 043c
000001a0: 1229 a33b 56e1 893c 4f53 293b 3ca7 c73c
000001b0: e42c ec3a 3259 96bc 7f5c a83c 70eb e03b
000001c0: 82f1 70bc 96d9 cd3c a920 e4bb 290a 78ba
000001d0: 786e d8bc 658e 313c e367 563b d5c9 25bb
000001e0: aa27 353b 58f5 953b 11d3 aa3b adc2 1f3d
000001f0: 7543 023c 6941 4cbc de2e 0abc 034c d13b
00000200: a6bc 88bc 0e0f 093c 42a4 3d3d b47a b9bc
00000210: 4713 1ebc fe4f ce3b d834 283d a5f1 debc
00000220: 922d 4fbc 9cd5 5cbc 594f c73c 2eba f73b
00000230: 1123 f0bb 56bc 623c 6eba 033c 2975 aebc
00000240: 297c 08bd 70b8 003d c361 2fbc ac64 de3c
00000250: 9d43 843b 8ab8 6abd 7460 0a3c fc05 32bc
00000260: f3c8 2d3d 46ba 413d fed7 2ebb f93c 0a3d
00000270: 4bd0 053d 4fcb a33c 77e9 fbbb 89f1 39bb
00000280: 7f44 a2bc 3c6c dfbb f6d6 7ab9 7235 e3bc
00000290: e586 543c 0910 acbc 84e7 57bc c516 edbc
000002a0: 2587 66bc 3b94 bdb9 1be2 d8bb 4670 c7bc
000002b0: 377f 4b3c 0c23 61bd f220 143c 5780 54bb
000002c0: 3bba b83b 76d6 1cbb 0b97 213c b976 eebc
000002d0: b924 a9bc d00e a9bb 542c 8abc 1b97 c2bc
000002e0: 9079 aabc cd8a ecbc 1673 c838 040e d63a
000002f0: 9364 04bc f71c fc3c 69df b6bc da7d c0bc
00000300: e050 d2bc e7d5 523d b376 183d 9cef 32ba
00000310: 5d17 793c dc91 c63a 950f 3c3b 4ae8 3d3c
00000320: e683 56bc ad9f 023d 7f19 e23b dd7c d4bc
00000330: 5155 333c d563 6bbc a0e0 8a3c cf68 093c
00000340: d0d3 16bc d184 22bc 784f 12bc f2f4 993b
00000350: 1618 49bc 8b56 283c b6b5 4ebc b988 323a
00000360: 3d62 5ebc 1e67 4d3c 83a7 373c 8142 f63c
00000370: f3bb 233c 109e abbc c7cb 1339 0c69 433b
00000380: c9aa bbbc 9410 63bc 15ff 4e3d 36c2 53bc
00000390: 036e 3cbc 86d2 f73b 0bc3 7a3c e10f 1bbd
000003a0: 2646 aebc 8b6a c9bc 198e a43b e70e 293b
000003b0: d6ca b4bc a3ab b0bc afd8 b13c 9f61 3cb9
000003c0: 8bc6 da3c a4cb 8c3c a130 773c 3bbc b3bc
000003d0: 880d 053c ddf4 8cbd ed5a 453c 85c4 56bc
000003e0: d0a6 173d 1ae3 163d 50ee 2ebd 3f4f 2c3d
000003f0: 0ad0 973c 3563 bf3a e4e6 12bd a2e8 65bc
