Weights/fca_model_fbm_ero_chunks.pt (torch, 25752 bytes, 3 tensors)

w1.weight f4 [96, 48, 1, 1]
0	0x3e143038	0.14471519
1	0x3dd1a0a1	0.10235716
2	0xbd41b8af	-0.04729527
3	0xbd0658c6	-0.032799505
4	0x3dc97454	0.09836641
5	0xbe17de17	-0.14830814
6	0x3c9e1ee7	0.019301845
7	0x3db7b3cf	0.08969843
8	0xbe1ae91f	-0.15127991
9	0xbdc54ac5	-0.09633402
10	0x3d3fd79c	0.04683648
11	0x3e1831e6	0.14862785
12	0xbd0e8b41	-0.03480077
13	0x3d560b53	0.052256893
14	0x3d0a0b54	0.03370221
15	0xbcfc1564	-0.030771919
16	0xbe2311d2	-0.15924767
17	0x3d70511e	0.05867111
18	0xbd829f16	-0.063779995
19	0x3d756547	0.05991104
20	0xbdaacd2c	-0.08339915
21	0xbd1207e4	-0.035652056
22	0xbdbea7d3	-0.09309354
23	0x3e0d67cf	0.13809131
24	0xbe09013d	-0.13379379
25	0xbdb311df	-0.08743643
26	0x3d18b4e2	0.03728188
27	0xbd08feea	-0.03344623
28	0xbdd0eef6	-0.10201828
29	0x3ba04e61	0.004892156
30	0x3ddd123d	0.10794494
31	0x3b6ac124	0.0035820687
32	0xbc595dd7	-0.013267002
33	0x3d8b77f6	0.0680999
34	0x3da514ba	0.08060594
35	0x3e1d9309	0.1538812
36	0xbd825b85	-0.06365112
37	0x3d03f82b	0.032219093
38	0x3d20c913	0.03925426
39	0xbda81602	-0.08207323
40	0xbca662bd	-0.020310754
41	0xbcacc8e0	-0.021091878
42	0xbd8dc78f	-0.069228284
43	0xbe1b5abd	-0.15171333
44	0x3cc40cb4	0.023931839
45	0x3c4a854e	0.012360884
46	0x3c1d1b9b	0.009589101
47	0x3d8225ff	0.063549034
48	0xbd9cc6b6	-0.076550886
49	0xbafdc5b6	-0.0019361291
50	0xbc287eb1	-0.010284112
51	0xbdbc184b	-0.09184321
52	0xbdf1ae97	-0.118008785
53	0x3d038b7f	0.032115456
54	0x3c990560	0.01867932
55	0xbde8d3c6	-0.113685176
56	0x3d487aae	0.04894512
57	0xbd83eccc	-0.0644165
58	0x3db67f76	0.0891103
59	0x3b6b0fe4	0.0035867626
60	0xbe00dc63	-0.12584071
61	0xbc81614d	-0.015793467
62	0x3de16f1e	0.11007522
63	0x3e14097f	0.14456747
64	0xbd07a15c	-0.03311287
65	0xbda1f5d8	-0.07908219
66	0x3dd25f89	0.10272128
67	0xbd3d6d2d	-0.046246696
68	0x3d4dd057	0.050247516
69	0xbd8f18eb	-0.069871746
70	0x3db872eb	0.09006294
71	0x3df84010	0.12121594
72	0x3b96eac3	0.0046056225
73	0x3cf25f4d	0.029586459
74	0xbd2eab54	-0.04264386
75	0x3d8ad496	0.06778829
76	0x3d95c445	0.07312826
77	0x3bb9d395	0.0056709745
78	0xbcf9d87f	-0.030498741
79	0xbde5cafd	-0.112203576
80	0x3c7951bb	0.01521724
81	0x3dac7ea8	0.08422595
82	0xbd9087ef	-0.07057177
83	0xbd6cbaaa	-0.057795204
84	0x3e065db1	0.13121678
85	0xbda88c44	-0.082298785
86	0xbd627057	-0.055282917
87	0x3d210b6f	0.039317545
88	0xbd5ecfbc	-0.05439733
89	0x3d26a76f	0.04068702
90	0xbcf29d21	-0.02961594
91	0xbcbd4830	-0.02310571
92	0x3cb3da86	0.021954786
93	0xbe0e5461	-0.13899375
94	0x3ba0e931	0.004910611
95	0x3e3f46b9	0.18679322
96	0xbe08931e	-0.13337371
97	0xbd95b2d5	-0.073095
98	0xbdf9141f	-0.12162041
99	0xbdc82ecf	-0.09774553
100	0x3d608c5d	0.05482136
101	0x3decd6ab	0.11564382
102	0xbe0fefb0	-0.14056277
103	0xbdf175bd	-0.11790035
104	0x3e4d769a	0.20064774
105	0xbd219461	-0.039448146
106	0x3dda15f7	0.10648721
107	0xbcdc03fc	-0.026857369
108	0x3dc407d4	0.095718056
109	0x3d91caaa	0.07118733
110	0xbd9962df	-0.07489561
111	0xbd69538e	-0.05696445
112	0x3cf39922	0.029736105
113	0xbd8bf381	-0.06833554
114	0xbcbe326b	-0.0232174
115	0xbd34b98c	-0.044122264
116	0xbdb7eb53	-0.089804314
117	0x3cb1bdd5	0.021696964
118	0xbd9a511d	-0.075350024
119	0x3df3b507	0.118997626
120	0xbc8e3d82	-0.017363314
121	0xbb853f5e	-0.004066392
122	0xbd1b4863	-0.03791083
123	0xbe28fbf6	-0.16502365
124	0xbe0035f6	-0.12520584
125	0x3d1c10c9	0.038101945
126	0xbd0474fc	-0.032338127
127	0xbda58b21	-0.08083177
128	0x3dfe3c7c	0.1241388
129	0xbd9f80b6	-0.077882215
130	0xbdef389a	-0.11680718
131	0xbd19a86e	-0.037514143
132	0x3de2ac4e	0.11068021
133	0xbd9e32ff	-0.077245705
134	0xbcde3a88	-0.02712752
135	0x3d102225	0.035188813
136	0xbe008c51	-0.12553526
137	0xbdb4e00b	-0.08831795
138	0xbc582023	-0.013191256
139	0x3e3dbe4e	0.18529627
140	0xbcdd613f	-0.02702391
141	0xbd5fab92	-0.05460698
142	0xbbbe6954	-0.005810896
143	0x3d6c93f3	0.057758283
144	0xbd0e3ce4	-0.03472604
145	0x3b5efa34	0.0034023644
146	0x3d382685	0.04495861
147	0x3e13d437	0.14436422
148	0xbca43a90	-0.020047456
149	0xbdd8e68f	-0.105908506
150	0xbe0d9a6f	-0.13828443
151	0x3cbe8944	0.023258813
152	0x3d6f2d74	0.058392957
153	0x3ce065e7	0.02739234
154	0x3dc27db1	0.0949663
155	0xbda6602c	-0.08123812
156	0x3b866db0	0.0041024312
157	0xbae47858	-0.0017430885
158	0xbe1ba283	-0.15198712
159	0x3daf9231	0.08572806
160	0xbdad0da3	-0.084498666
161	0xbe0f3c39	-0.13987817
162	0x3c43d2f8	0.011952154
163	0x3d9198cb	0.07109221
164	0xbde6cf6c	-0.11270031
165	0x3d6b9d3c	0.057522997
166	0xbc1b9f17	-0.009498379
167	0xbd13bd35	-0.036069114
168	0x3ddef250	0.10886061
169	0x3cbd5411	0.023111375
170	0xbe0f4d98	-0.13994443
171	0xbdd91b02	-0.106008545
172	0x3e305969	0.17221607
173	0x3d867399	0.06565017
174	0x3c9ff035	0.01952372
175	0xbdae03ae	-0.084967956
176	0x3d3b5e71	0.045744363
177	0x3cf0c325	0.029389927
178	0x3d6b2aac	0.057413742
179	0x3da58997	0.08082884
180	0xbda63932	-0.08116378
181	0x3d70eae9	0.058817778
182	0xbe07a5c2	-0.13246825
183	0xbce1793c	-0.02752363
184	0xbd62dc54	-0.055385903
185	0x3dfd0bf3	0.12355795
186	0x3d6a50b1	0.05720586
187	0x3cb80566	0.022463512
188	0xbd970db5	-0.07375661
189	0x3d341042	0.043960817
190	0xbe0f0d99	-0.13970031
191	0xbdf3716e	-0.11886869
192	0x3d57525b	0.052568775
193	0xbd2516c5	-0.040304918
194	0x3e10ca35	0.14139636
195	0x3b4d712d	0.0031347976
196	0x3d7b82e2	0.061404116
197	0x3dd7d05b	0.105377875
198	0xbe0b421e	-0.1359944
199	0xbd97246b	-0.07379993
200	0x3dad09b1	0.08449114
201	0x3d1f49ea	0.03888885
202	0x3e0d6ff3	0.13812236
203	0x3d594f74	0.053054288
204	0x3dcb2009	0.099182196
205	0xbe56dd4b	-0.20982854
206	0xbe03c7a7	-0.1286913
207	0x3df32c43	0.11873677
208	0x3d938ad0	0.07204211
209	0xbd204ed4	-0.039137676
210	0x3dc9dcdc	0.09856579
211	0xbc7a2a27	-0.015268839
212	0x3d8c180b	0.06840523
213	0xbd17fd5c	-0.037106857
214	0xbdc98f0b	-0.098417364
215	0xbdda6877	-0.10664456
216	0xbdfb0d26	-0.12258367
217	0x3d574e37	0.052564826
218	0x3dd8bfc3	0.10583451
219	0xbd5c211c	-0.053742513
220	0xbe0a301f	-0.13494919
221	0x3e047e14	0.1293872
222	0xba571ad8	-0.0008205599
223	0x3d73f40a	0.059558906
224	0xbd0e2e71	-0.03471226
225	0x3c23763c	0.00997692
226	0xbdd81546	-0.105509326
227	0x3c6dcbbc	0.014513906
228	0xbd31d674	-0.04341741
229	0x3cb7319f	0.022362528
230	0xbd901b28	-0.0703643
231	0xbdec21b6	-0.11529867
232	0xbdcfa0ca	-0.1013809
233	0x3d97e2ed	0.074163295
234	0x3e1f25a5	0.15541704
235	0xbc626617	-0.013818285
236	0xbdc12e9d	-0.09432719
237	0x3d24ed4d	0.04026537
238	0x3d83df2f	0.06439053
239	0xbe37f491	-0.17964388
240	0xbde20c33	-0.11037483
241	0x3ddb5d54	0.1071116
242	0x3d50aa3d	0.050943602
243	0xbb12f783	-0.002242536
244	0x3e35cfcd	0.17755051
245	0xbcf81e67	-0.030287934
246	0x3e36de79	0.17858304
247	0x3dcfac62	0.10140301
248	0x3d3fae3f	0.046797033
249	0x3da5d04e	0.080963716
250	0x3ded3434	0.115822226
251	0xbd919aff	-0.07109641
252	0xbcb8bf31	-0.022552105
253	0xbd8327e9	-0.06404097
254	0x3d8fe68c	0.07026395
255	0x3d039fc7	0.032134797

w1.bias f4 [96]
0	0x3d3ad965	0.04561748
1	0x3d4a1bb7	0.049342837
2	0xbe09a24b	-0.13440816
3	0xbb019c55	-0.001977702
4	0xbddebee7	-0.108762555
5	0xbd769143	-0.060197126
6	0xbdc3a431	-0.095528014
7	0xbd731586	-0.0593467
8	0xbd9adec1	-0.07562018
9	0x3d625e9c	0.055266008
10	0xbbfaf513	-0.0076586097
11	0xbe08b928	-0.13351882
12	0xbd72f45d	-0.059315074
13	0x3d287e19	0.04113588
14	0xbdce815b	-0.10083266
15	0xbd10f038	-0.03538534
16	0xbddbaa51	-0.10725845
17	0xbd305c5a	-0.043056823
18	0xbde06b40	-0.10957956
19	0xbe0e2a6c	-0.1388337
20	0x3d3ac232	0.045595355
21	0x3cf19fa7	0.029495073
22	0xbdc672bb	-0.09689852
23	0x3cb80993	0.022465503
24	0x3b1a3aee	0.002353366
25	0xbdbeb64a	-0.09312113
26	0x3db967a5	0.09052972
27	0x3dc3b0ec	0.095552295
28	0x3c86771c	0.016414218
29	0xbd679c5f	-0.05654561
30	0xbdc4d1fd	-0.096103646
31	0xbdfe1538	-0.12406391
32	0xbd93b162	-0.072115675
33	0xbdf10ef1	-0.11770428
34	0x3d8c5d51	0.06853736
35	0x3d24a8c5	0.040200014
36	0xbe1afb75	-0.15134986
37	0xbd60e5fa	-0.054906823
38	0xbcba6247	-0.02275194
39	0x3d817e50	0.0632292
40	0xbd978684	-0.07398704
41	0xbe0e4f31	-0.13897397
42	0x3befbfa5	0.007316547
43	0x3d02c209	0.031923328
44	0x3d198081	0.037476066
45	0x3d103f2f	0.035216507
46	0xbd8b4243	-0.06799748
47	0x3d26392d	0.04058187
48	0xbd04362f	-0.032278236
49	0x3dcca919	0.0999319
50	0x3cb5d7fc	0.022197716
51	0xbe009ff8	-0.12561023
52	0x3dd65f22	0.10467364
53	0xbdb9c20a	-0.09070213
54	0xbdfa1b14	-0.12212196
55	0x3df6f7ca	0.12058981
56	0xbc9d8be9	-0.019231753
57	0xbd24b920	-0.04021561
58	0x3d38a6f9	0.045081113
59	0x3dc13a04	0.09434894
60	0x3cff7b95	0.031186858
61	0x3d506fd7	0.05088791
62	0x3da790e1	0.0818193
63	0x3ab1ecfe	0.0013574657
64	0xbca4d84a	-0.020122666
65	0x3d8cc2a1	0.0687306
66	0x3d862822	0.065506235
67	0xbdb4a969	-0.08821375
68	0x3ce5d10a	0.02805378
69	0x3e025d6a	0.12730947
70	0xbd2379c9	-0.039911065
71	0x3d642b30	0.05570525
72	0x3d907a99	0.07054634
73	0xbd868d1d	-0.06569884
74	0xbb974634	-0.004616523
75	0xbd29d6a2	-0.041464455
76	0x3cd3b879	0.0258448
77	0x3db84090	0.08996689
78	0x3dea5238	0.11441463
79	0x3bdbcd8a	0.006707852
80	0x3d4e81c6	0.05041673
81	0x3da10765	0.078627385
82	0xbd3f8a82	-0.04676295
83	0xbd90170f	-0.07035648
84	0x3c63e2c5	0.013909047
85	0xbdc4fd3e	-0.096186146
86	0xbde80948	-0.11329895
87	0xbcf6ba1d	-0.030118043
88	0xbd813acb	-0.06310042
89	0xbe26a2e4	-0.16273075
90	0xbdae44a9	-0.0850919
91	0xbe0664c3	-0.13124375
92	0x3d16fd81	0.036862854
93	0x3d16bada	0.03679929
94	0x3e03e3df	0.12879895
95	0xbd228e72	-0.039686628

w2.weight f4 [12, 96, 1, 1]
0	0xbcc0f768	-0.023555472
1	0xbc24062c	-0.010011237
2	0xbd05ac88	-0.03263524
3	0xb90b68c7	-0.00013295106
4	0xbc4fc188	-0.012680419
5	0x3b9ac40a	0.0047230767
6	0x3ca249b5	0.019810537
7	0xbd036000	-0.032073975
8	0xbcafc468	-0.021455958
9	0x3c1802c3	0.009278002
10	0xbcd696b3	-0.026194906
11	0xbc9889c8	-0.018620387
12	0xba1f38a1	-0.0006073807
13	0xbc988059	-0.018615888
14	0xb84cf960	-4.886964e-05
15	0x3cae885a	0.021305252
16	0x3ca4a16f	0.020096509
17	0xbb289b54	-0.0025727348
18	0x3d7031d1	0.05864126
19	0xbd303466	-0.04301872
20	0x3ad9f792	0.0016629568
21	0xbb06d794	-0.0020575272
22	0xbcf9345b	-0.030420473
23	0xbc992f30	-0.018699259
24	0x3d0b4246	0.03399875
25	0x3cc43719	0.023952054
26	0xbd00e116	-0.03146466
27	0x3bb65cde	0.00556527
28	0x3c1ca411	0.009560601
29	0x3c859a71	0.016308995
30	0xbcca15b4	-0.024668552
31	0xbd113ca2	-0.035458215
32	0x3c2a8cab	0.010409514
33	0x3ca79a81	0.020459415
34	0xbd04c80d	-0.032417346
35	0xbcdc1287	-0.026864303
36	0x3d5d6acc	0.054056928
37	0x3c071f93	0.008247274
38	0xbc27f2eb	-0.010250787
39	0xbbc6ee0b	-0.0060708574
40	0xbb9f2f13	-0.0048579066
41	0x3cde4f47	0.027137412
42	0x3c97316b	0.018456182
43	0xbc7be220	-0.015373737
44	0xbd20850d	-0.039189387
45	0xbc0e615b	-0.008690204
46	0x3d352664	0.044226065
47	0xbca1048f	-0.019655494
48	0xbc9cb1c8	-0.019127741
49	0xbb3446a0	-0.0027507916
50	0x3ccea1ff	0.02522373
51	0xbb8c2eb3	-0.004278028
52	0xbc8ff766	-0.017574023
53	0xbcbfcb8e	-0.023412492
54	0x3c8fa9d7	0.01753704
55	0xbce449db	-0.027867248
56	0x3bb1c0d9	0.0054246006
57	0xbd561ac7	-0.05227163
58	0x3a74d6d9	0.0009339876
59	0x3b6ca93f	0.003611162
60	0x3c18aa8e	0.009318007
61	0xbbee1880	-0.007266104
62	0xba994bf1	-0.0011695606
63	0xbc9cac21	-0.019125046
64	0xbb96ce8d	-0.0046022595
65	0x3b9600de	0.00457774
66	0xbc355f0e	-0.011070026
67	0xbc782d6e	-0.01514755
68	0x3aca5055	0.0015435318
69	0xb8cdb302	-9.8085045e-05
70	0xbb8b0bd3	-0.004243353
71	0xbaf1004d	-0.001838693
72	0xbca83d52	-0.020537052
73	0x3ca740b8	0.020416602
74	0x3c8b1452	0.016977463
75	0x3c818f69	0.015815454
76	0x3c94f60c	0.01818373
77	0xbc81a09f	-0.01582366
78	0xbccfcaf4	-0.02536533
79	0xbb0691ba	-0.0020533637
80	0x3c2b2c96	0.010447642
81	0xbc9fbd4d	-0.019499445
82	0xbcac66f7	-0.021045191
83	0x3c455118	0.01204326
84	0xbd19246b	-0.037388247
85	0x3d2162ea	0.039400972
86	0x3d42a460	0.04752004
87	0x3d0e8c5d	0.03480183
88	0xbc40c363	-0.011765334
89	0x3c4578dd	0.012052742
90	0xbca1df6c	-0.019759856
91	0xbcda74a8	-0.026666954
92	0xba81b11d	-0.0009894703
93	0xbc94c09f	-0.018158255
94	0x3cca0ea6	0.024665188
95	0x3d1ba461	0.03799856
96	0x3a2cb01f	0.00065875234
97	0xb8bd8220	-9.03646e-05
98	0xbce89f47	-0.028396262
99	0x3a8c5a13	0.0010707997
100	0xbc4c3b5d	-0.012465325
101	0x3a9abe3a	0.001180596
102	0x3c9b07ad	0.018924559
103	0xbd00b2b6	-0.031420432
104	0xbc73dc15	-0.014884015
105	0x3b80653c	0.003918318
106	0xbcd81e6d	-0.026381696
107	0xbc474fcd	-0.012165022
108	0xbb80566d	-0.0039165528
109	0xbc714a59	-0.0147271985
110	0x3c8f7ce3	0.017515605
111	0x3cc31349	0.023812907
112	0x3c3f866b	0.011689763
113	0xba4808a3	-0.00076306815
114	0x3d72787d	0.059196938
115	0xbd4e7552	-0.050404854
116	0x3b34e9a8	0.002760509
117	0xbae2a4f3	-0.001729159
118	0xbcaaa205	-0.02082921
119	0xbcd40433	-0.025880909
120	0x3ce8d058	0.028419659
121	0x3cc0b41b	0.023523381
122	0xbd086598	-0.033300012
123	0xbb540d63	-0.0032356612
124	0x3c4614b0	0.012089893
125	0x3c9d0914	0.019169368
126	0xbce8c338	-0.0284134
127	0xbce165c7	-0.027514352
128	0x3c3e4622	0.011613401
129	0x3cc460f3	0.02397201
130	0xbd13a250	-0.036043465
131	0xbcf20a10	-0.029545814
132	0x3d6c7add	0.05773436
133	0x3bfed967	0.007777381
134	0xb9b3f51f	-0.0003432417
135	0xbbaa7e81	-0.0052030687
136	0xbb8f3a54	-0.004370967
137	0x3cc3adef	0.023886649
138	0x3c8fce6e	0.017554488
139	0xbc112b05	-0.008860354
140	0x3c98c53b	0.018648734
141	0x395d48d2	0.0002110333
142	0x3d2dce96	0.042433344
143	0xbc857a39	-0.016293632
144	0xbcf1eb32	-0.029531095
145	0xbb39e148	-0.0028363038
146	0xbc760b35	-0.01501732
147	0xbb2844ba	-0.002567573
148	0xbc6e2488	-0.014535077
149	0xbced6ed3	-0.02898351
150	0x3bb9be72	0.005668455
151	0xbcd9bde0	-0.026579797
152	0x3c012fdd	0.007884947
153	0x3d1a20e0	0.03762901
154	0x3d0cbca4	0.03435959
155	0x3b48eca3	0.0030658625
156	0x3c6ff9ce	0.01464696
157	0xbb26b7c7	-0.002543913
158	0xb9e8aa06	-0.00044377166
159	0xbc9ea9ba	-0.019368041
160	0xba70e977	-0.00091900624
161	0xbc5f346c	-0.013623338
162	0xbc5aceb8	-0.01335495
163	0xbca6ee80	-0.020377398
164	0xbc5a323d	-0.013317642
165	0xbbaf1fcf	-0.005344368
166	0xbc950414	-0.018190421
167	0xb9f0cd35	-0.00045929258
168	0xbbb82667	-0.0056198123
169	0x3ca59435	0.020212272
170	0x3cb6a717	0.022296472
171	0x3c927016	0.017875712
172	0xbd2f3b62	-0.04278124
173	0xbc98cced	-0.018652404
174	0xbc9f270d	-0.0194278
175	0x3c53e3ec	0.012932759
176	0xbd00f68e	-0.031485133
177	0xbc8822c0	-0.016618133
178	0xbccdf5cc	-0.02514162
179	0x3ca596a6	0.020213436
180	0xbc77cd5b	-0.015124644
181	0x3ce5985e	0.028026756
182	0x3d42c3e7	0.04755011
183	0x3d04b873	0.032402467
184	0xbc2db0a6	-0.010601198
185	0x3c629d8a	0.013831506
186	0xbcaca8e1	-0.021076621
187	0xbd2ee0ca	-0.042694844
188	0xbc5bfe59	-0.01342734
189	0xbc9a98b7	-0.018871648
190	0x3ce264b8	0.027635917
191	0xbc27e478	-0.010247342
192	0x3ce6aa8a	0.028157491
193	0xbc2a8878	-0.010408513
194	0xbd08bd50	-0.033383667
195	0x3ab076f4	0.0013463185
196	0xbc87391e	-0.016506728
197	0x3b74cf7b	0.0037355113
198	0x3cb76e31	0.02239141
199	0xbcd43338	-0.02590333
200	0xbcd61caf	-0.026136724
201	0x3b211504	0.0024579177
202	0xbcbd543f	-0.02311146
203	0xbc97d5e9	-0.018534617
204	0xbbab0c70	-0.0052199885
205	0xbc8ddbf0	-0.017316788
206	0x3c8985f6	0.01678751
207	0x3cb0f3a4	0.021600552
208	0x3b8c7e7b	0.0042875386
209	0xbbd024a0	-0.0063520223
210	0x3d804b59	0.062643714
211	0xbd5b1145	-0.053483266
212	0x3b2cc48b	0.0026362266
213	0xbcaf96ca	-0.021434207
214	0xbcaf16b4	-0.02137313
215	0xbc7a4108	-0.015274294
216	0x3d02c2f6	0.03192421
217	0x3ca69582	0.020334963
218	0xbd21647f	-0.03940248
219	0x3c239848	0.009985037
220	0x3c5e99f1	0.013586507
221	0x3cb0902b	0.02155312
222	0xbcfc1005	-0.030769357
223	0xbce39360	-0.027780235
224	0x3c3c748b	0.011502395
225	0x3b79965f	0.0038084013
226	0xbd00c885	-0.03144123
227	0xbcdf2eb8	-0.027243957
228	0x3d708b5a	0.058726646
229	0x3b6207fb	0.003448962
230	0x3c6cb0de	0.014446465
231	0xbc0edfd4	-0.008720357
232	0xb905b786	-0.00012752236
233	0x3cf911b7	0.030403955
234	0x3c8dfcf6	0.017332535
235	0xbba13ace	-0.00492034
236	0xbd2a854e	-0.041631036
237	0x3b6e2ec3	0.003634379
238	0x3d2ebc6e	0.04266017
239	0xbc768c16	-0.0150480475
240	0x3c40525e	0.011738388
241	0xbb999518	-0.004686963
242	0xb9c8bbe5	-0.00038286965
243	0xbc4c9efe	-0.012489079
244	0xbc9a1aba	-0.018811572
245	0xbcbbd673	-0.022929406
246	0x3c3db332	0.011578368
247	0xbcfec2cb	-0.031098744
248	0xbb8910f4	-0.004182929
249	0xbd39f664	-0.045400992
250	0x3c8a0597	0.016848369
251	0x3bb80106	0.0056153564
252	0xbd20bae6	-0.03924074
253	0xba5cce76	-0.0008423099
254	0x3a3ea0eb	0.00072719035
255	0xbc2a7188	-0.0104030445
