Weights/fca_model_perlin_ero_chunks.pt (torch, 25776 bytes, 3 tensors)

w1.weight f4 [96, 48, 1, 1]
000000 cd f7 c4 3d 3c 78 6f bd 9f 8b 98 3d bb 65 db 3b
       0.09617577 -0.058464274 0.074485056 0.006695477
000010 86 25 af 3d 71 13 e2 bd 56 3b 23 be 3c b4 ac bd
       0.08552079 -0.110388644 -0.15940604 -0.084328145
000020 d4 e9 4c be e4 53 47 bd 7e 7e be 3d a1 12 05 3e
       -0.20011073 -0.04866399 0.0930147 0.12995388
000030 d6 10 86 3c 56 fb 02 bd 5b b4 8f bd e6 66 ed 3c
       0.01636545 -0.031977974 -0.07016822 0.02897973
000040 5e a8 84 bd ed 9b 9f bd 82 e2 60 bd 87 96 e4 bd
       -0.06477426 -0.07793412 -0.054903515 -0.11161523
000050 8b 52 54 3d 37 5c a1 3d 7e ab b6 3d 0b 11 08 bb
       0.05183653 0.07878917 0.08919428 -0.0020762112
000060 28 0f a1 bc a9 27 f8 3d f9 64 10 bd 83 8f 11 3e
       -0.019660547 0.121169396 -0.035252545 0.14214902
000070 ff 60 38 bd f3 99 18 be be ad 77 3d c7 98 70 3d
       -0.045014378 -0.14902477 0.060468428 0.05873945
000080 28 00 22 3c 1e 51 9a 3d 0b 55 ca bc 56 b0 2f be
       0.009887733 0.07535003 -0.024698755 -0.1715711
000090 7a 10 db bc 7a 52 4d 3d 7b fc 8a 3c db 5e 9b bc
       -0.026741255 0.050127484 0.016966095 -0.018966129
0000a0 22 58 21 3e b4 12 e4 3d 57 fc 12 bd c5 ce 07 bd
       0.15756276 0.1113638 -0.03588518 -0.033156175
0000b0 78 a2 02 be cd 3e 9b bd ca 64 ad bd 6d 58 28 be
       -0.1275729 -0.07580338 -0.084664896 -0.16439982
0000c0 f7 2c 6a 3e 6e 4e e0 bd c1 50 10 be 65 34 94 bd
       0.22868715 -0.10952459 -0.14093305 -0.07236556
0000d0 52 1e 1c be 28 95 96 3d f8 d6 e7 bc f6 4e 92 bd
       -0.15245941 0.07352668 -0.028300747 -0.07143967
0000e0 b2 73 3d 3e 71 63 29 3c a1 2b bf 3d 79 17 08 bd
       0.18501166 0.01033865 0.093344934 -0.03322551
0000f0 5a 84 fa 3b 4c 69 8c bd 62 93 0b be 8d e9 b5 3d
       0.007645172 -0.06856021 -0.13630441 0.08882437
000100 22 46 00 3e 13 5a d9 3c b7 7f c1 3d f5 6f 3f bd
       0.12526754 0.026532209 0.09448188 -0.04673763
000110 ea df 16 3d df 54 b5 bc 5b f5 48 bd 8c 44 19 3e
       0.036834635 -0.022135196 -0.049062114 0.14967555
000120 cd 8a 2f bd 40 7d 91 bd 79 42 c0 bd 81 75 43 bd
       -0.04285698 -0.07103968 -0.09387679 -0.047719482
000130 87 07 48 bd ed 14 7b bd f5 7a 17 bd 3c fb 5a bc
       -0.048835304 -0.061299253 -0.036982495 -0.013365563
000140 9f fb 5b bc 01 29 3f be 53 b4 d0 bd e3 f3 92 3d
       -0.01342669 -0.18667985 -0.10190644 0.07175424
000150 dd d5 cd bd a5 c7 06 be 98 84 20 bd dc 1c 90 3d
       -0.10050557 -0.13162096 -0.03918895 0.070367545
000160 a7 cd 32 3d 46 35 70 3d 8d 16 2a 3c c4 f5 32 3d
       0.043653157 0.058644556 0.010381353 0.04369141
000170 20 32 6e 3d 24 6d 92 bd a0 c4 7b 3d ec ce 3c 3d
       0.05815327 -0.07149723 0.061466813 0.046095774
000180 92 6f 22 be 17 7a fc 3b b0 d5 52 3d 6a 60 c4 3d
       -0.15862873 0.007704984 0.05147332 0.09588702
000190 0c 3c 0f be 45 64 1a 3c ee b8 b4 bd 08 94 f7 bd
       -0.1398775 0.00942332 -0.08824335 -0.120887816
0001a0 24 0a d9 bd 5e 47 54 3d 1d a8 e2 3d ee d6 55 3d
       -0.10597637 0.051825874 0.11067221 0.052206926
0001b0 98 b0 10 bd dc 6b 75 3d 26 49 50 3e 9b 67 ff bd
       -0.035324663 0.059917316 0.20340404 -0.12470933
0001c0 47 c3 2d bd 5b e4 62 3d 3c d2 04 3d 1c b1 11 bd
       -0.04242256 0.055393558 0.032427058 -0.035569295
0001d0 b8 08 cf bc ec 04 5f 3e 51 38 e9 bc 93 d4 93 bd
       -0.025272712 0.21779221 -0.028469237 -0.0721828
0001e0 92 57 ce 3c 25 9e 2a bd dc c3 30 3e cc 95 a2 bd
       0.025188241 -0.041654725 0.17262214 -0.07938728
0001f0 97 1c 8f 3c e0 a1 e0 bc c4 d2 37 bc bc bc e3 3d
       0.017469687 -0.027420938 -0.011219684 0.111199826
000200 a6 27 cd bc 88 2b 5b 3e 8a 0e 81 3d 26 5a db bd
       -0.02504332 0.21403325 0.06301601 -0.10710554
000210 2e c2 b0 3d 77 a3 b8 3d 99 e2 29 bd 1a d4 e4 3c
       0.08630787 0.090155534 -0.041475866 0.02793317
000220 cd 5c fc 3d 4f 6d 24 be 3f 27 36 be d2 17 bc 3d
       0.12322388 -0.16057323 -0.17788409 0.09184231
000230 19 ec 02 bb ce 27 5a bd e0 9e e3 bb 2d 1d 81 3d
       -0.001997715 -0.053260617 -0.0069464296 0.06304393
000240 2d b2 bc 3d 91 51 fd bd e2 74 1f 3e cd 2b d5 bd
       0.09213672 -0.12369073 0.15571931 -0.10408745
000250 9b 33 d2 3c 17 b4 43 3d be 8f d8 3d 97 8c 73 bd
       0.025659373 0.04777917 0.10574292 -0.05946025
000260 e8 5d 39 bd 9a c6 0c 3c 02 c4 0a bc 14 6f c3 3c
       -0.04525557 0.008592272 -0.0084695835 0.023856677
000270 3a bb 6f 3d 60 c5 8e 3d 91 d1 b4 3d e7 47 88 bc
       0.058528163 0.0697124 0.08829034 -0.016635848
000280 92 06 be 3a 6d f5 b2 3d 64 56 8f 3d cd 8b 4a 3d
       0.0014497808 0.087382175 0.069988996 0.04944973
000290 70 82 ac 3c 10 da bf 3d c2 38 bb bd 51 5d 0a 3e
       0.021058291 0.09367764 -0.09141685 0.1351216
0002a0 50 dd 33 bd 6f 45 64 3c b2 23 00 be eb 1e cd 3d
       -0.043912232 0.01393257 -0.12513617 0.10015663
0002b0 7e fc 85 bc b7 c6 ce bc fe 5c 6a bd b4 1d 77 bd
       -0.01635575 -0.025241239 -0.05721759 -0.06033106
0002c0 e8 93 4e bd 5f d0 85 bd 9f ab 46 3c 2d 42 b8 bc
       -0.050434023 -0.06533884 0.012125879 -0.022492493
0002d0 71 c9 db 3d 5b 13 05 3e 9e e6 1c 3d 09 5f f0 bd
       0.10731781 0.12995665 0.03830587 -0.117368765
0002e0 fc ca 89 3d 7d 6d 0f 3d 33 1e f4 bc b1 9d 20 3d
       0.06728169 0.035016526 -0.029799556 0.039212886
0002f0 55 81 8e 3b 98 47 b9 bd 85 77 d4 3d 68 09 a6 bb
       0.0043489137 -0.090468585 0.10374359 -0.0050670393
000300 e1 a1 57 3c 2a be 67 bd bf 40 8f 3d 50 0b 4c 3d
       0.0131611535 -0.05657784 0.06994771 0.049815476
000310 89 22 88 3d ed b0 29 3d a5 f7 12 3e 58 30 a2 bb
       0.06647212 0.041428495 0.14352281 -0.0049496107
000320 52 db 40 bd 49 60 23 3d fd 65 b8 bd a7 28 11 be
       -0.04708416 0.039886747 -0.09003828 -0.14175664
000330 3b dc 74 bd 2d 92 bf 3d f8 c5 82 3d ef ae d0 bd
       -0.05978034 0.09354053 0.06385416 -0.10189616
000340 c4 49 f9 bd 5b 23 1c 3e 3f 81 89 bd 1d 4d 52 bc
       -0.12172273 0.15247862 -0.06714105 -0.012835768
000350 33 f5 ca 3d 8e fe 43 bd 6c 58 1b be 26 78 94 bd
       0.09910049 -0.047850184 -0.15170449 -0.07249479
000360 70 da f9 3d e6 bd 25 bc 2b 8b e9 bd b0 46 13 bc
       0.12199867 -0.010116076 -0.11403497 -0.008989021
000370 f0 d8 d4 bd ba 7a d8 3d 58 00 f6 3c a5 88 59 bb
       -0.1039294 0.10570283 0.03002946 -0.0033193019
000380 54 47 14 be 18 b2 5d bd a0 da ed 3d ae 28 4e bc
       -0.14480335 -0.05412492 0.11613965 -0.012582941
000390 6f aa 10 bd 03 df 1a bd f7 f0 5a bd 0c 29 16 3e
       -0.03531879 -0.037810337 -0.05345246 0.14664096
0003a0 87 88 0c 3c a3 2a f7 bd dc 7c 21 3d 17 3c 3b 3e
       0.0085774725 -0.12068679 0.039425716 0.18284641
0003b0 94 ce 67 3d bb 1c c8 bd e4 72 01 bd c6 0b 17 be
       0.056593493 -0.09771105 -0.03160371 -0.14750585
0003c0 fd 91 f1 3c f5 9c 38 3c 7e 3e 25 3e 37 a3 0d 3e
       0.029488558 0.01126789 0.1613712 0.13831793
0003d0 81 56 d0 3b 8e 92 e1 3d 14 0a 82 3d 46 16 98 bd
       0.0063579683 0.11014281 0.063495785 -0.07426123
0003e0 d7 a9 34 3a 2c f6 8c bc 58 78 fc bd 71 d1 a2 bd
       0.0006891763 -0.017207228 -0.12327641 -0.07950104
0003f0 0b 35 0c be 2a 03 82 bc e3 75 4e bd f4 a9 5a 3d
       -0.1369211 -0.01587065 -0.050405394 0.053384736

w1.bias f4 [96]
000000 22 84 c8 bd 25 3c 01 3e 68 16 59 bd a8 5f b9 bd
       -0.09790827 0.126206 -0.052999884 -0.09051448
000010 bd 31 c4 3c 28 9e 03 bd af 9b 4a bd 79 e3 04 be
       0.023949498 -0.03213325 -0.049464878 -0.12977399
000020 47 a6 a6 bc 02 f9 66 3d 0d 1e 89 bd 8b b0 ad 3b
       -0.02034296 0.056389816 -0.06695185 0.0053005866
000030 7a 86 10 be ba fc de 3d 63 f6 ef bd ef a7 ed bd
       -0.14113799 0.108880475 -0.117169164 -0.116042964
000040 3b 30 90 bc 10 f6 02 3d f8 64 86 bd b8 bb 7e 3d
       -0.017601123 0.031972945 -0.06562227 0.06219074
000050 53 36 fc 3c bc 82 4a 3d 65 ef 6b bd c5 7c a4 bd
       0.030787623 0.049441084 -0.05760135 -0.080316104
000060 40 4a 00 be 66 e9 be 3c 8b 73 2e 3d 33 08 c0 bd
       -0.12528324 0.023304652 0.04259066 -0.09376564
000070 32 e1 7f 3d 0d b9 0f be f4 eb bd 3d cd 69 bb 3d
       0.062470622 -0.14035435 0.0927352 0.09151039
000080 8f 99 bc bd 23 7f 51 bb 09 81 9c bd 58 a1 a8 bd
       -0.092089765 -0.0031966649 -0.07641799 -0.08233899
000090 4a d3 bf bd e0 50 8b bc 48 fa 1d 3c ed 73 b9 3d
       -0.09366472 -0.017006338 0.009642191 0.09055314
0000a0 ee 1f b9 bc d6 e7 48 bd d3 0f 95 3d 2b d7 84 3d
       -0.022598233 -0.04904922 0.07278409 0.064863525
0000b0 33 c5 f7 bd 24 c4 e6 3c 41 ba d8 bc 49 a0 95 3c
       -0.1209816 0.028169699 -0.026456 0.018264906
0000c0 32 21 1e bd 29 71 f7 bd c8 b5 a4 bd 5e 27 22 bd
       -0.038605876 -0.120821305 -0.080424845 -0.039588325
0000d0 98 64 45 bd 66 83 f8 3c 3b ed ac 3d db 7a 02 bb
       -0.048191637 0.030336093 0.084436856 -0.0019909653
0000e0 58 47 fa bd d3 6c a2 3d ef 4b 71 3c 34 91 d5 3d
       -0.12220639 0.07930913 0.014727577 0.10428086
0000f0 4a 99 15 be 03 63 d5 3d 8e 8f d6 bd 06 8a a8 bd
       -0.14609256 0.104192756 -0.104766 -0.08229451
000100 7d 66 ea bd 66 bd b2 bd d0 bb bf bd 10 84 b1 bd
       -0.11445329 -0.08727531 -0.09361994 -0.08667767
000110 b0 b7 b3 bd d7 e3 7d bd d9 44 0a be 20 67 7d bc
       -0.0877527 -0.061984863 -0.13502826 -0.015466481
000120 9a dc e4 3d 1c 4e 1e 39 f1 f0 30 bd 0e 58 bb bd
       0.11174889 0.00015097152 -0.04319853 -0.091476545
000130 38 c2 3a 3d 10 9d d1 bd 14 f5 2a bd 0c 22 d4 bb
       0.045595378 -0.102350354 -0.04173763 -0.0064737853
000140 8b a9 50 bd 21 e6 ba 3d d2 55 6d bd 98 81 d5 bd
       -0.05094294 0.09125925 -0.057943173 -0.10425109
000150 40 2f 7b bc 7c 6f 23 3d d4 29 b1 3d 6b 4f ac bd
       -0.0153310895 0.03990124 0.08650556 -0.08413585
000160 90 e8 8d bc 0f 39 0b bd 60 58 db bd 26 66 47 b9
       -0.017322809 -0.033989962 -0.107102156 -0.00019016172
000170 e4 af a2 bd 81 ec a9 3d 71 71 32 bd 6d ee 0b be
       -0.07943705 0.08297063 -0.043565217 -0.13665171

w2.weight f4 [12, 96, 1, 1]
000000 36 2e 82 bc 68 9d 11 bd d4 1d 3a 3d e3 50 9e bc
       -0.015891176 -0.035550505 0.045438603 -0.01932568
000010 d8 72 bc bc c2 5f f3 39 3a 98 63 bc bc fe ae bc
       -0.02300398 0.00046419917 -0.013891274 -0.021361701
000020 7d 88 c1 bb 7e e2 6d bc a1 4f 8e bc 17 a1 23 3c
       -0.0059061632 -0.014519332 -0.017371954 0.009987137
000030 1f fd e3 bc 96 4e 3d 3c d0 c6 88 3b d2 fa 0b 3d
       -0.027830658 0.011554381 0.004174091 0.034174748
000040 a2 17 6b bc 57 dc 3d bc 33 1e 68 3c d0 83 25 3c
       -0.014348896 -0.011588178 0.014167356 0.010102227
000050 91 8a 30 bc db 58 44 bc 04 2e 48 bb b3 19 cd bb
       -0.010775224 -0.011984075 -0.0030545006 -0.006259167
000060 c6 ce 65 3c 14 e3 9b 3c 36 41 0a bc 8d c6 32 3d
       0.014026349 0.019029178 -0.008438399 0.043646384
000070 a2 ce 4d 3b cc 52 cc bc 71 84 74 bc a3 f6 a0 bc
       0.003140368 -0.024941824 -0.014924155 -0.019648856
000080 2b 31 01 3c 31 19 ae 3c b6 47 da bc 5f f3 07 3c
       0.007885258 0.021252247 -0.026645523 0.00829777
000090 b0 ae a2 3c b9 18 27 bd 76 2f c6 b8 42 20 75 bc
       0.019858688 -0.04079506 -9.450216e-05 -0.014961304
0000a0 a9 07 fb bb a6 87 a5 bc 40 7e d6 3a d8 d4 ec bb
       -0.0076608253 -0.020206284 0.001636453 -0.0072275214
0000b0 f8 c5 8a bc 04 84 85 bc 17 14 1d bd 07 bc 0f bd
       -0.016940102 -0.016298302 -0.038349237 -0.035091426
0000c0 1e 79 c8 3c df 82 c8 3c 4c 8c 37 3d 57 09 3e bc
       0.024471816 0.024476467 0.044811532 -0.0115989065
0000d0 8e d8 04 bc 24 9c a0 bc 02 2b b2 bc 51 e3 8c bc
       -0.008108271 -0.019605704 -0.021749023 -0.017198237
0000e0 7c 16 16 bd f6 ff 52 bd d2 61 95 3c 9a 6f 85 bc
       -0.036642537 -0.051513635 0.01823512 -0.016288567
0000f0 5a 7a ef bc a7 c2 02 3d 62 09 c4 bb cc 43 9f 3c
       -0.029233146 0.031923916 -0.005982564 0.019441508
000100 c2 79 0c 3d 12 e2 7a bb e4 54 e2 3b 17 d3 cd bb
       0.034295805 -0.003828172 0.0069070924 -0.0062812674
000110 8d bd 5a 3c d7 ed d6 bb 4c 9e 02 bd d4 28 1b 3d
       0.0133508565 -0.0065591144 -0.031889245 0.037880734
000120 fc ae 2b 3c 58 9e 83 bc b0 14 3c 3b bf 99 89 bc
       0.010478731 -0.016066715 0.0028698854 -0.016796945
000130 67 e3 2e bc 0c 00 c1 bc c7 b9 9d bc 66 d0 cb 3c
       -0.010674334 -0.023559593 -0.019253625 0.024879646
000140 f7 6e 06 bc 03 c0 b9 bc 65 06 2b bb 27 81 81 3c
       -0.008205167 -0.022674566 -0.002609634 0.015808655
000150 61 6d c0 3c ff c7 b0 bc c3 bd 5c 3c 50 3a 68 3c
       0.023489656 -0.02157974 0.013472977 0.014174059
000160 9a df 28 bc e3 39 64 bc f5 59 62 3a e7 25 a3 bc
       -0.010307217 -0.013929817 0.00086346205 -0.019915534
000170 ac 5f c6 3c 7d a2 26 bd 5a 11 0c ba 33 b0 05 3d
       0.024215542 -0.040682305 -0.0005343162 0.03263874
000180 6c 80 ba bc 07 6a 37 3b 47 b9 10 3d 6b a5 2a bc
       -0.022766314 0.0027986781 0.035332944 -0.010415415
000190 e7 4e f3 bc a5 f9 a1 bb 65 b0 57 bc 17 a8 e6 bc
       -0.02970071 -0.00494309 -0.013164614 -0.028156323
0001a0 69 1e 54 bc 72 b6 99 bc e2 c7 d2 bb 2e b3 1f bc
       -0.0129467035 -0.018763755 -0.0064325193 -0.00974731
0001b0 1d f1 cb bc 88 22 cd bc ee 64 c0 3c cc e7 15 3d
       -0.024895245 -0.02504088 0.023485627 0.03659801
0001c0 70 df b3 bc f0 43 83 bc 2e 04 55 3c 06 49 de 3b
       -0.02195713 -0.016023606 0.013001485 0.0067836074
0001d0 25 da 56 bc 63 80 b8 3c 76 34 9d bc b8 32 97 39
       -0.013113533 0.022522157 -0.019190054 0.00028838753
0001e0 6d cc de bc de 7d 3e bc ed a5 04 bc dc 71 48 3d
       -0.027197087 -0.011626689 -0.0080962 0.04893671
0001f0 77 83 2b 3c 3e d6 2d bc 3f 20 e6 bc 1e 97 a7 bc
       0.010468355 -0.010610161 -0.028091548 -0.0204578
000200 23 30 4d 3c ea 98 ab 3c 33 67 0d bd ff a6 dc bb
       0.012523684 0.020946939 -0.034522247 -0.0067337747
000210 44 74 39 3d 84 52 60 bd 01 72 86 ba fd 82 2b bc
       0.045276895 -0.054766193 -0.0010257364 -0.010468242
000220 07 22 60 bc 25 6c 25 bd fa 8b bd 3c 05 da 76 bc
       -0.013679988 -0.040386338 0.023138035 -0.015066628
000230 66 e0 8b bc 55 9e a2 bb d3 90 c1 bb 5b 3b 01 3d
       -0.017074775 -0.0049627223 -0.005907157 0.031550746
000240 72 91 97 3c e5 72 e1 3c 05 52 45 3d b4 e5 cb 3b
       0.01850197 0.027520606 0.048173923 0.006222451
000250 5b 5d c7 bb 12 0d b2 bc 19 fd c8 bc 27 c4 dc bc
       -0.006084127 -0.021734748 -0.024534749 -0.026949001
000260 29 50 ae bc 76 ef e5 bb 93 cf 81 3c 70 d0 33 3c
       -0.021278458 -0.0070170714 0.01584605 0.010974988
000270 db b5 60 bc 59 2c 47 bc b4 65 8c bc 1f 4f 8b bc
       -0.013715233 -0.012156569 -0.01713834 -0.017005501
000280 83 60 d4 3c 8c 5d 73 bc 68 1e 42 b9 90 20 b4 3b
       0.025924927 -0.014853846 -0.00018512609 0.005497046
000290 e0 16 70 3c 23 cb 3b bb 35 14 ff bc dc 01 19 3d
       0.014653891 -0.0028655014 -0.031137565 0.03735529
0002a0 9e e4 23 bd 20 7e 81 bc 81 a7 22 3c d1 cd 8a bb
       -0.04001295 -0.015807211 0.009927631 -0.004235961
0002b0 ad e1 57 bc b7 7e f0 bc 93 85 7e bc d6 a0 9d 3c
       -0.013176364 -0.029357297 -0.015534776 0.019241732
0002c0 27 fe 13 bd a2 74 c6 bc f0 39 36 bc 10 7b c2 3c
       -0.03613105 -0.024225537 -0.011122212 0.023740321
0002d0 ff 6c a2 3c 1c 8a 33 bc e3 ff d0 3a b1 c3 bd bb
       0.019827364 -0.010958221 0.0015945401 -0.0057911505
0002e0 1b 28 95 bc fd 77 d7 bc 5f 89 ce 3b 3b 70 54 3d
       -0.0182076 -0.026302332 0.006302997 0.051864844
0002f0 2d 25 37 bb b5 b1 c2 3a 8d cf 1c bc fa 7c 0a 3d
       -0.0027945742 0.0014853986 -0.009570968 0.033810593
000300 68 f7 07 3c 99 1c bf bc c5 65 ce 3c 5f c0 28 bb
       0.008298732 -0.023329066 0.025195012 -0.0025749428
000310 c5 d5 63 bc aa 42 9d 3b 1f 0d 50 bc 42 ee 04 bc
       -0.013905947 0.0047992067 -0.012698441 -0.008113446
000320 91 eb 8e bc df 94 1d bd ce f6 16 bc c1 1d 26 3c
       -0.017446311 -0.038472053 -0.009214116 0.01013893
000330 89 f4 d9 bc a8 ac 71 bc 70 37 b8 bb ea f3 0a 3d
       -0.026605861 -0.014750637 -0.005621843 0.03392402
000340 69 72 3b bc c8 22 a5 bc 91 95 8e 3c d1 e2 74 3c
       -0.011440852 -0.020158187 0.017405303 0.014946655
000350 d9 0b 81 bb cd c6 a6 bb 84 cb 1f bc a7 06 31 3a
       -0.00393818 -0.005089617 -0.009753112 0.00067530054
000360 1e b5 9e 3a a7 cc 91 3c 72 24 b6 bc ae f3 11 3d
       0.001210842 0.017797781 -0.022234175 0.03563278
000370 d1 dc 02 3c 6a 79 86 bc e8 17 21 3c 29 b8 dd bc
       0.007987217 -0.016415317 0.00983236 -0.027065353
000380 97 a0 d2 3c 08 6b e2 3c bf c0 00 bd 21 12 94 3c
       0.02571134 0.027638927 -0.031433817 0.01807505
000390 9a ee e7 3c 77 59 f8 bc a1 6e 60 bd f8 fd 16 bc
       0.028312016 -0.030316098 -0.054793004 -0.009215824
0003a0 22 70 20 bc 0b 8b ef bc c0 a5 b1 3c 7f 91 6e 3b
       -0.00979236 -0.029241106 0.021685481 0.003640264
0003b0 58 53 63 3c 64 58 0b 3c 89 f5 23 3c 38 d8 3a bc
       0.013874851 0.008504961 0.010007271 -0.01140409
0003c0 fd 02 96 bc 6c 34 9a 3c 35 23 ee 3c 8d 24 1c bd
       -0.018311972 0.018823825 0.029069522 -0.038120795
0003d0 af 0f 19 bc 6a ee e5 bc cc 7a a3 3a 4f e1 e1 3b
       -0.009342118 -0.028067786 0.0012472509 0.006893314
0003e0 43 82 9c bc 83 85 68 39 7a 75 8b 3c 46 18 48 bc
       -0.019105082 0.00022174981 0.01702379 -0.0122128185
0003f0 0f 6b bf bc 5f 39 9a bc d6 f7 bd bc f2 ab 52 3d
       -0.02336648 -0.018826185 -0.023189466 0.05143351
