Weights/fca_model_perlin_ero.pt (torch, 26689 bytes, 4 tensors)

w1.weight f4 [96, 50, 1, 1]
0	0xbdbc859e	-0.09205173
1	0x3d3e9655	0.046530087
2	0xbe28a88f	-0.1647055
3	0xbd101f9b	-0.03518639
4	0xbcb48c7e	-0.022039648
5	0x3d711624	0.058859006
6	0x3cf014f5	0.029306868
7	0xbc196398	-0.009362124
8	0x3b9a3399	0.004705858
9	0x3b51927f	0.0031978188
10	0xbc6056a7	-0.0136925345
11	0xbd8ac139	-0.067751355
12	0x3cef03d2	0.029176626
13	0x3ce86ddd	0.0283727
14	0xbc87853b	-0.016543021
15	0xbc28bd24	-0.010299001
16	0x3c1e200d	0.009651196
17	0xbc690e57	-0.01422461
18	0x3d7a2007	0.0610657
19	0x3c26c33d	0.010178384
20	0xbd631995	-0.05544432
21	0x3d2dee43	0.042463552
22	0x3cb4f543	0.022089606
23	0x3ce61b33	0.028089141
24	0x3d6a2cf9	0.057171796
25	0x39c3733e	0.0003727916
26	0x3d7c9400	0.06166458
27	0x3c1afe6a	0.009460071
28	0xbc8bb298	-0.017052934
29	0x3b501d54	0.0031755762
30	0xbd16eccb	-0.036846917
31	0xbc8a0ad0	-0.016850859
32	0x39a2a84c	0.0003102444
33	0xbd9eff81	-0.07763577
34	0x3c3cf4f7	0.011533014
35	0xbcee2d88	-0.029074445
36	0xbd118a43	-0.035532247
37	0xbdb4d15c	-0.08828995
38	0x3c948f75	0.018134812
39	0x3d8362a9	0.06415302
40	0x3cf9e9c7	0.030506982
41	0xbce2d626	-0.027690005
42	0x3d882a82	0.06648733
43	0xbd436033	-0.047699165
44	0xbc7b6800	-0.01534462
45	0xbd63bf22	-0.0556022
46	0xbc1c64d3	-0.009545523
47	0xbc7b28d0	-0.015329555
48	0xbc030033	-0.007995653
49	0xbd396f73	-0.045272302
50	0xbba4844f	-0.005020655
51	0xbd868b2e	-0.06569515
52	0xbd60e599	-0.05490646
53	0x3c224aef	0.009905561
54	0x3c939881	0.018017055
55	0x3d35ad12	0.044354506
56	0xbc3548f2	-0.011064755
57	0x3de79df0	0.11309421
58	0x3c087fee	0.008331282
59	0xbda6e1d2	-0.081485406
60	0x3cbd168f	0.023082046
61	0x3c71cf0d	0.014758837
62	0x3cf8412d	0.030304516
63	0x3d665e33	0.05624218
64	0x3cc0586d	0.023479665
65	0xbd1c36a6	-0.038138054
66	0xbb981bc0	-0.00464198
67	0x3c086077	0.00832378
68	0xbd46a6aa	-0.048498787
69	0xbd9d6698	-0.07685584
70	0xbcd6f1b6	-0.026238304
71	0xb93e4a23	-0.0001814743
72	0xbda01e22	-0.078182474
73	0x3c726a2d	0.014795822
74	0xbbd4ce02	-0.0064942846
75	0xbc5ecb33	-0.013598251
76	0x3d7a3cd0	0.06109315
77	0xbd01118f	-0.031510886
78	0xbc1b12af	-0.009464904
79	0xbd86f41a	-0.065895274
80	0xbc59ac47	-0.013285703
81	0xbd7796e9	-0.060446654
82	0x3bbb70aa	0.0057202177
83	0x3db0c43d	0.086311795
84	0x3d524cbf	0.051342722
85	0x3b2c0196	0.0026246062
86	0x3957b40a	0.00020571068
87	0x3d405100	0.046952248
88	0x3bf478f3	0.0074607073
89	0xbdc0dbe5	-0.094169416
90	0xbd1c1655	-0.038107235
91	0x3cde337a	0.027124155
92	0xbda7edf8	-0.08199686
93	0x3b0db212	0.002162103
94	0xbd572c2b	-0.052532356
95	0x3db56803	0.08857729
96	0xbd2f674b	-0.042823117
97	0xbd1281bd	-0.03576826
98	0xbdbcc5b2	-0.09217395
99	0x3d20b717	0.039237108
100	0xbd268baf	-0.040660556
101	0xbcd2bd75	-0.025725106
102	0xbdd30501	-0.10303689
103	0x3c9450d5	0.01810495
104	0x3c849d2d	0.016188229
105	0x3c3114e4	0.010808203
106	0x3ceb3b64	0.028714843
107	0xbd823c0d	-0.0635911
108	0xbb05b183	-0.0020399995
109	0xbba348c4	-0.0049830396
110	0xbd14bf63	-0.036315333
111	0x3cd1c651	0.02560726
112	0x3cecbabc	0.028897636
113	0xbbbb2eb1	-0.005712353
114	0x3baef029	0.005338688
115	0x3b4fd758	0.0031714048
116	0x3d9a91b3	0.07547321
117	0x3d10a159	0.035310123
118	0xbcf989b6	-0.030461174
119	0x3c70aa4e	0.014689041
120	0x3cfd5dee	0.030928578
121	0xbdb07761	-0.0861652
122	0xbd0ae03a	-0.033905245
123	0x3c8166a6	0.015796017
124	0xbca77b48	-0.020444527
125	0xbc6fbf78	-0.014633052
126	0xbd64a63f	-0.055822607
127	0xbc90e092	-0.017685208
128	0xbd061b2a	-0.03274075
129	0xbc96ad5b	-0.01839321
130	0xbc24524c	-0.010029387
131	0x3cb8c1fd	0.022553438
132	0x3d93c819	0.072159
133	0x3c66cceb	0.014086942
134	0x3dab2155	0.08355967
135	0xbc6fb03d	-0.014629421
136	0x3d8e31b6	0.06943075
137	0x3d69d4e7	0.057087805
138	0x3de3eb5f	0.11128878
139	0xbd8ac92e	-0.06776653
140	0xbd99d405	-0.07511143
141	0xbd0bc9af	-0.034127887
142	0xbd92de9f	-0.07171368
143	0xbc74f185	-0.014950161
144	0xbd1bd1cf	-0.038041886
145	0xbd6cbdc5	-0.057798166
146	0x3d2e6a85	0.042582054
147	0x3d703bca	0.05865077
148	0x3c707bbe	0.01467794
149	0x3cb2b40d	0.02181437
150	0xbc4b5315	-0.012409945
151	0x3d872d80	0.06600475
152	0xbd131c72	-0.0359158
153	0xbc289fd1	-0.010292009
154	0x3c8a71ab	0.016899904
155	0x3e025ef1	0.1273153
156	0xbd09b59b	-0.033620458
157	0x3adeca96	0.0016997631
158	0xbb358def	-0.0027703007
159	0xbd1c4113	-0.038147997
160	0xbc85ee56	-0.016348999
161	0xbde9e114	-0.11419883
162	0xbd147b77	-0.036250558
163	0x3c830687	0.015994323
164	0xbd2a70c8	-0.041611463
165	0xbcee5cbb	-0.029096952
166	0xbd958420	-0.073005915
167	0xbcc582f9	-0.024110304
168	0x3d3f49dd	0.0467013
169	0xbd32f572	-0.043691106
170	0xbd243e29	-0.040098343
171	0x3ca9db21	0.020734372
172	0xbbbb0535	-0.005707408
173	0xbcd92a4e	-0.02650943
174	0x3dcb897a	0.09938331
175	0x3ba086d7	0.0048988867
176	0x3d37fdb6	0.044919692
177	0xbd092420	-0.033481717
178	0xbd48c5c6	-0.049016736
179	0xbdefeb13	-0.11714759
180	0xbc1f47b2	-0.009721683
181	0xbcef29d4	-0.02919475
182	0xbbcd8e80	-0.006273091
183	0x3cc3d2ca	0.023904223
184	0x3ccaef95	0.024772445
185	0x3d7f7301	0.062365536
186	0xbccec07e	-0.025238272
187	0xbdc532ed	-0.09628854
188	0xbc93b175	-0.018028954
189	0xbd7ae6c4	-0.06125523
190	0x3cc29344	0.023751862
191	0x3cbc2852	0.022968445
192	0x3d7fd7c5	0.062461633
193	0x3cfce5e0	0.030871332
194	0x3b7e8dac	0.0038841767
195	0x3ce7956c	0.028269492
196	0xbcbe2fe5	-0.023216197
197	0xbd1edd06	-0.038785003
198	0xbd31262e	-0.0432493
199	0x3c85e220	0.016343176
200	0xbd0d9977	-0.034570184
201	0x3dc913cb	0.09818228
202	0x3c8d7c3f	0.01727116
203	0x3b40b503	0.0029404766
204	0xbcfae193	-0.03062514
205	0xbd8412d8	-0.06448907
206	0xbc4a82fa	-0.012360329
207	0x3cf8f672	0.030390952
208	0x3d85667b	0.06513687
209	0x3cb7f933	0.022457695
210	0x3c9ea2cd	0.019364739
211	0xbd90b31d	-0.07065413
212	0x3d8b584e	0.06803952
213	0x3c64546e	0.013936145
214	0x3d18a8f9	0.03727052
215	0x3d2133d4	0.039356068
216	0x3d4c7455	0.04991563
217	0x3ca0e76b	0.019641599
218	0x3c604064	0.013687227
219	0xbd1a7210	-0.037706435
220	0xbc85d80c	-0.01633837
221	0xbc5fba11	-0.0136552015
222	0xbd0f5663	-0.034994494
223	0x3cf4fe04	0.02990628
224	0xbcb769a5	-0.022389242
225	0xbd11e8d9	-0.03562245
226	0xbcda6a39	-0.026661979
227	0x3d4bd608	0.049764663
228	0xbd634021	-0.05548108
229	0xbd29710f	-0.041367587
230	0x3bcf23ed	0.0063214214
231	0x3b59cdb1	0.0033234174
232	0x3cdbf981	0.026852371
233	0xbcd73303	-0.026269441
234	0x3becb993	0.0072242706
235	0xbcbd0fe1	-0.02307886
236	0x3cd5e733	0.026111221
237	0xbced11c7	-0.028939141
238	0xbd1ce085	-0.038300056
239	0xbd912720	-0.070875406
240	0x3da603a5	0.08106164
241	0x3cb2a3ad	0.021806562
242	0xbd909f89	-0.07061679
243	0x3c181c6b	0.009284119
244	0xbdaea08d	-0.085267164
245	0xbc3dc9e5	-0.01158378
246	0xbc97651a	-0.018480826
247	0x3c7539fb	0.014967437
248	0x3cbf0298	0.023316666
249	0x3c484632	0.012223767
250	0x3c943783	0.018092876
251	0x3cbee1d9	0.023301052
252	0x3e423fc2	0.18969634
253	0x3bbc5878	0.005747851
254	0x3bccda68	0.006251622
255	0x3d872650	0.065991044

w1.bias f4 [96]
0	0x3d076427	0.033054497
1	0xbe049b37	-0.12949835
2	0xbd959a47	-0.07304817
3	0x3cd03677	0.025416596
4	0x3dad11c0	0.08450651
5	0x3dfd9101	0.12381173
6	0x3cc8eca1	0.024526896
7	0x3df9761b	0.1218073
8	0x3dd92b6a	0.10603984
9	0x3dceac8a	0.10091503
10	0x3dab2601	0.08356858
11	0xbd58cdbd	-0.052930582
12	0xbd1b7539	-0.03795359
13	0xbcdb2a55	-0.026753584
14	0x3d0dde35	0.03463574
15	0xbd6343d6	-0.055484615
16	0x3dadd420	0.08487725
17	0x3cfbdc6b	0.030744752
18	0x3d8d31ab	0.06894239
19	0xbd4b2066	-0.049591444
20	0xbdc930ff	-0.098237984
21	0x3de0b20b	0.10971459
22	0x3de3ed10	0.111292005
23	0xbd772d98	-0.060346216
24	0x3d4e93b0	0.050433815
25	0x3d640b65	0.05567493
26	0x3daf3492	0.08554949
27	0x3d083401	0.03325272
28	0x3d8fcca5	0.07021455
29	0x3dcfe1f0	0.10150516
30	0xbc5ca3da	-0.0134668
31	0xbd9ce349	-0.07660539
32	0xbc83f21f	-0.016106663
33	0xbcb652f6	-0.022256356
34	0x3d06056a	0.032720007
35	0xbdf6d946	-0.1205316
36	0x3d5ebf21	0.054381493
37	0x3db7b561	0.08970142
38	0xbd8479b1	-0.06468523
39	0x3dd15d2d	0.1022285
40	0x3dd58bb0	0.10427034
41	0x3df3d285	0.11905388
42	0x3d58e22b	0.052950066
43	0x3d3c8b00	0.046031
44	0x3d97c051	0.07409728
45	0xbcc53a0a	-0.024075527
46	0x3d0dd545	0.034627218
47	0xbd495aeb	-0.04915897
48	0xbd7b57e3	-0.061363112
49	0xbd21f107	-0.039536502
50	0xbdf79773	-0.120894335
51	0x3dafff76	0.08593647
52	0x3db2d635	0.08732263
53	0xbd8429f1	-0.06453312
54	0x3d01ec42	0.031719454
55	0xbd81df36	-0.06341402
56	0xbdbbe8e1	-0.091752775
57	0xbd8c04da	-0.06836863
58	0x3d95d737	0.073164396
59	0x3d1640c7	0.03668287
60	0x3db75ffc	0.089538544
61	0x3d1a4e04	0.037672058
62	0x3d1c21b4	0.03811808
63	0xbdebf94c	-0.11522159
64	0xbd569c08	-0.052394897
65	0x3db683f9	0.089118905
66	0x3d9caecf	0.076505296
67	0x3be52b51	0.006993689
68	0xbbfa1e1e	-0.007632985
69	0x3cff6c40	0.031179547
70	0xba41438e	-0.0007372432
71	0x3d2aab97	0.041667547
72	0xbd0956d5	-0.033530075
73	0x3da03a2c	0.078235954
74	0xbdc2dd3e	-0.09514855
75	0x3d815c7c	0.06316468
76	0xbd4dfd83	-0.050290596
77	0x3d8e3ddb	0.06945392
78	0x3dc7bc74	0.097527415
79	0xbd93484d	-0.07191525
80	0xbe18d149	-0.14923586
81	0xbdada704	-0.08479121
82	0x3da3ee43	0.08004429
83	0x3da17245	0.07883123
84	0xbd3fead0	-0.046854794
85	0xbdcd8d35	-0.10036699
86	0x3d92dcc3	0.07171013
87	0x3e03cf5e	0.12872073
88	0x3c5a5800	0.013326645
89	0xbd288e0f	-0.041151103
90	0x3d5db5c1	0.054128412
91	0x3dee43d5	0.11634032
92	0xbdc15dde	-0.09441732
93	0x3dec6efa	0.115446046
94	0x3dea9112	0.11453451
95	0xbd842956	-0.06453197

w2.weight f4 [12, 96, 1, 1]
0	0x3c2afc34	0.0104361065
1	0x3d483dae	0.048886947
2	0x3d17a652	0.03702385
3	0xbc1bf181	-0.009518028
4	0xbbeabc13	-0.0071635335
5	0x3c92af3c	0.017905824
6	0xbd4343a4	-0.04767193
7	0xbce24c7d	-0.027624363
8	0xbc5e13e0	-0.013554543
9	0xbd067c86	-0.0328336
10	0xbc6d9bf2	-0.014502512
11	0x3ccf4553	0.025301611
12	0xbd3c75a0	-0.046010613
13	0x3c390732	0.011293219
14	0xbcfbb97a	-0.03072809
15	0xbd491a3b	-0.04909728
16	0x3c8c4461	0.01712245
17	0x3cae0efc	0.02124738
18	0x3c4aa120	0.012367517
19	0xbce2b45f	-0.027673898
20	0x3d6b00cf	0.057373818
21	0x3a8eee35	0.0010904731
22	0xbcc366a5	-0.023852656
23	0x3c8ad312	0.01694635
24	0x3cb771dd	0.022393161
25	0x3d053b4d	0.032527257
26	0xbbedc832	-0.007256531
27	0xbd1fc6bf	-0.0390079
28	0x3ca9e596	0.020739358
29	0x3b1df5c5	0.002410279
30	0x3c112fb5	0.008861472
31	0x3d308768	0.043097883
32	0x3d2203e6	0.0395545
33	0x3c2141d9	0.009842359
34	0xbd445aac	-0.047938034
35	0xbcd38fd0	-0.025825411
36	0x3b4abd67	0.0030935647
37	0x3bfb3de1	0.0076672886
38	0x3ca583b3	0.0202044
39	0x3c1a3fc1	0.009414614
40	0x3cc956ba	0.024577487
41	0xbccdfb33	-0.025144195
42	0xbc5e4f3a	-0.013568694
43	0x3c6d9c86	0.01450265
44	0xbcd66875	-0.026172856
45	0x3d47a349	0.048739705
46	0xbca905b3	-0.0206326
47	0xbd2ddb38	-0.04244539
48	0xbd678042	-0.0565188
49	0x3cbe4961	0.02322835
50	0xbb9944bb	-0.0046773828
51	0xbac10266	-0.0014725446
52	0xbb21c5a5	-0.0024684456
53	0xbd040529	-0.032231484
54	0x3b053f09	0.0020331761
55	0x3cdb261e	0.026751574
56	0x3d2138a5	0.03936066
57	0xbd54bcd6	-0.0519379
58	0x3b12800c	0.0022354154
59	0xbc978cad	-0.018499697
60	0xbd04e274	-0.032442525
61	0xbc73c3db	-0.014878239
62	0xbafff5e6	-0.001952824
63	0x3c99a523	0.018755501
64	0x3d310071	0.04321331
65	0xbca25c97	-0.01981954
66	0xbc4faa29	-0.012674847
67	0x3db5f2b8	0.088841856
68	0x3bf2f823	0.007414834
69	0x3ba769fc	0.00510907
70	0xbd91b2bc	-0.07114169
71	0x3920014a	0.0001525927
72	0x3d0e32f1	0.03471655
73	0x3aaffa76	0.0013426084
74	0xbd46bd4e	-0.04852038
75	0xbb93e062	-0.0045128325
76	0x3d42efe3	0.047592055
77	0xbd0c5693	-0.03426225
78	0xbc58d3dd	-0.013234106
79	0x3d331600	0.043722153
80	0x3d23761a	0.039907552
81	0xbd3f3737	-0.046683516
82	0xbcc81cc4	-0.024427779
83	0x3cdf1cff	0.027235506
84	0x3d7f7668	0.06236878
85	0x3d69801d	0.057006944
86	0x3a51fbcb	0.00080102374
87	0xbc8e8556	-0.017397564
88	0x3c30423c	0.010757979
89	0x3ccc632d	0.024949634
90	0xbae08b02	-0.0017131271
91	0xbc7a2d91	-0.015269653
92	0x3cc7d68b	0.024394294
93	0xbc92b810	-0.017910033
94	0x3d257b1d	0.040400613
95	0xbd399f8b	-0.045318168
96	0xbbd3cd26	-0.0064636646
97	0x3d56e607	0.052465465
98	0x3d0dca8c	0.034616992
99	0xbc86c9fa	-0.016453732
100	0xbca490f4	-0.02008865
101	0xbbe8b2a8	-0.0071013756
102	0xbd3d7ca2	-0.046261437
103	0xbca54cac	-0.020178162
104	0xbc5bdd47	-0.013419456
105	0x3c2c81f2	0.010529028
106	0xbcb97dff	-0.022643087
107	0x3cb26819	0.021778153
108	0xbd3e7e1a	-0.04650698
109	0x3c404c7d	0.011736986
110	0x3cc11e0b	0.023573896
111	0xbd3fb484	-0.046803012
112	0xbc002948	-0.007822342
113	0x3c62701b	0.013820673
114	0x3c1f5f04	0.009727243
115	0xbcf4ea86	-0.029896986
116	0x3d6483ae	0.055789642
117	0xbb503a9a	-0.003177321
118	0xbc58ea24	-0.013239417
119	0x3d049e46	0.032377504
120	0x3d278076	0.040893994
121	0xbcb18413	-0.021669423
122	0xbccc6018	-0.024948165
123	0x3d1d74f2	0.038441606
124	0xbce89d04	-0.028395183
125	0x3d2a26b9	0.041540835
126	0x3d25edf6	0.04051014
127	0x3d34e664	0.04416503
128	0x3ce2181b	0.027599385
129	0x3d6384f1	0.055546705
130	0xbd64cb24	-0.055857792
131	0x3a954d85	0.00113909
132	0x3cbe104c	0.02320113
133	0xbc8b5baf	-0.017011492
134	0x3cb4ebec	0.022085153
135	0x3b9e782a	0.004836102
136	0x3c5e758e	0.013577832
137	0x3c980260	0.01855582
138	0x3d1fa03f	0.038971182
139	0x3c430ed2	0.011905389
140	0xbcf71141	-0.030159594
141	0x3c9e08c0	0.019291282
142	0xbb5b6921	-0.003347941
143	0xbcedc04d	-0.02902236
144	0xbd4d7e27	-0.050169136
145	0x3ca8c156	0.020600002
146	0x392dde2c	0.00016581331
147	0xbc0e65d2	-0.008691268
148	0x3b9d4905	0.0047999644
149	0xbc50bc8f	-0.012740268
150	0x3d4d013e	0.050050013
151	0x3ce53afc	0.027982228
152	0x3d1039fe	0.035211556
153	0xbd57dc70	-0.05270046
154	0xbc5700b5	-0.013122727
155	0xbc985df3	-0.018599486
156	0x3b932f02	0.0044916878
157	0x3d24674f	0.040137585
158	0x3c1fb7f7	0.0097484505
159	0xbc6d45ac	-0.014481943
160	0x3d1f045a	0.03882251
161	0xbc8a6975	-0.016895989
162	0xbcc26f4e	-0.023734715
163	0xbbb6a3f5	-0.0055737444
164	0x3d0847ea	0.033271708
165	0xbc45989f	-0.0120603135
166	0x3d8759e0	0.06608939
167	0xbc0b7386	-0.00851143
168	0x3cf436ea	0.029811341
169	0xbd3b8437	-0.045780387
170	0xbd244b3a	-0.040110804
171	0xb99358da	-0.00028104224
172	0x3d684b6e	0.05671256
173	0xbbb732fa	-0.0055907937
174	0xbd0e377a	-0.034720875
175	0x3d2bab92	0.04191167
176	0xbc3b474f	-0.0114305755
177	0xbd369011	-0.044570986
178	0xbc99e5ee	-0.018786397
179	0x3c0d8081	0.008636595
180	0x3d794fbe	0.060867064
181	0x3d697e52	0.057005234
182	0xbd169d54	-0.036771134
183	0xbc07135e	-0.008244364
184	0x3b76dfa2	0.0037669917
185	0x3cd007b7	0.025394304
186	0x3cd177be	0.025569793
187	0xbd239341	-0.039935354
188	0x3cc5a3bd	0.024125928
189	0xbc71d946	-0.014761275
190	0xbc93c02b	-0.018035969
191	0xbd3035b8	-0.04301998
192	0x3cd3b139	0.025841342
193	0x3d14adcb	0.036298554
194	0x3d0e3d1a	0.03472624
195	0xbc0f8167	-0.008758879
196	0xbc2687f9	-0.010164254
197	0xbd173abb	-0.036921244
198	0xbd282c18	-0.041057676
199	0xbcac9a65	-0.021069715
200	0xbbbc8214	-0.005752811
201	0xbc3d3de8	-0.011550404
202	0xbc4151d5	-0.011799295
203	0x3cba022c	0.022706114
204	0xbd36900f	-0.04457098
205	0x3b60d316	0.0034305505
206	0xbcc462ff	-0.023972986
207	0xbd2697ae	-0.040671997
208	0x3ab172cf	0.0013538244
209	0x3cd739e6	0.026272725
210	0x3c3021ce	0.010750247
211	0xbc8c5e52	-0.01713482
212	0x3d33b705	0.043875713
213	0x3c965509	0.018351095
214	0x3d07385e	0.03301274
215	0x3cd3b1a5	0.025841543
216	0xbd4cdf20	-0.050017476
217	0x3ca91a84	0.020642526
218	0xbd29d155	-0.0414594
219	0xbbce37e2	-0.006293283
220	0x3cae521b	0.021279385
221	0xbb11c197	-0.0022240633
222	0x3bd7d131	0.006586217
223	0x3d2069bf	0.039163347
224	0x3d2e7e39	0.042600844
225	0xbbd3dcf2	-0.0064655477
226	0xbd268f3a	-0.040663935
227	0x3a6bfdbc	0.0009002348
228	0x3c4de67c	0.012567159
229	0x3cbcf504	0.023066051
230	0x3c3ba1f5	0.011452188
231	0xbb89dfa7	-0.0042075696
232	0xba9f839f	-0.0012169963
233	0xbbea127c	-0.007143317
234	0xbae08c95	-0.001713174
235	0x3cd4b9b1	0.02596745
236	0xbc2f1be8	-0.010687806
237	0xbc95d000	-0.018287659
238	0x3d3cca4f	0.046091374
239	0xbd00120c	-0.03126721
240	0xbd3edc89	-0.046597037
241	0x3d1063c7	0.035251405
242	0x3cdb315e	0.026756939
243	0xbc8f7f00	-0.017516613
244	0x3c9c94bf	0.019113896
245	0x3be06e22	0.0068490664
246	0xbd817c51	-0.063225396
247	0x3cb8c8b7	0.022556646
248	0x3d10198c	0.035180613
249	0xbd41be50	-0.047300637
250	0xbd1326c9	-0.03592566
251	0xbd5933c3	-0.05302788
252	0x3c562638	0.0130706355
253	0x3c9346af	0.01797804
254	0x3b8c57ae	0.004282913
255	0xbc406bfd	-0.011744496

w2.bias f4 [12]
0	0xbb8fbd5b	-0.0043865866
1	0x3b4465a6	0.0029967814
2	0xbc3a9df7	-0.011390201
3	0xbb9a09ff	-0.0047008987
4	0xbb998747	-0.004685316
5	0x3c82de48	0.015975133
6	0xbbee823e	-0.0072787097
7	0x3c479339	0.012181097
8	0x3c550b02	0.013003113
9	0xb9690ca0	-0.00022225315
10	0x3cd9da14	0.026593246
11	0xbbf1bade	-0.0073770126
