Weights/fca_model_fbm_ero.pt (torch, 26662 bytes, 4 tensors)

w1.weight f4 [96, 50, 1, 1]
000000 7a f5 6b 3e 0a 02 9b bc 09 3e 4e 3c 42 42 0e 3c
       0.2304286 -0.01892187 0.0125880325 0.008682789
000010 83 90 50 3d ac 60 36 3d 8e dc 84 bc 51 2f b8 bc
       0.050919067 0.044525787 -0.01621845 -0.0224835
000020 8c 4e fe 3a 51 ab 1d bd 72 0d ce bb c6 f6 e3 bc
       0.0019402071 -0.03849346 -0.006288224 -0.027827632
000030 f7 e9 94 bd a4 18 4d bd 3e a6 7f bd 85 7d 8a 3c
       -0.07271188 -0.050072327 -0.0624144 0.016905556
000040 9a 54 07 bd a8 55 85 bd 86 39 a2 bc 8d 8e ab bc
       -0.033039667 -0.06510478 -0.01980282 -0.020941997
000050 88 28 bf bc f8 ba 72 bc a8 b7 42 bd 46 1d 54 3d
       -0.023334756 -0.014815085 -0.04753843 0.05178573
000060 eb 2d 86 bd 98 63 00 bc 1b ae e3 bc 14 7e 04 bd
       -0.06551727 -0.007836245 -0.02779298 -0.0323468
000070 ac 6a 07 3c f0 89 24 bc e7 3b 94 3c 38 30 7c 3d
       0.008265179 -0.0100426525 0.01809497 0.061569422
000080 25 aa af bc 6a 0f 0b bc e6 16 78 3d 24 c5 34 3d
       -0.021443436 -0.008487562 0.060568713 0.04413332
000090 52 81 9e bd 6b f6 ea 3d 35 73 84 bc f2 79 29 3c
       -0.0773951 0.11472782 -0.016168216 0.010344015
0000a0 80 19 e7 39 c6 88 c2 bc b9 1d 37 bc d3 c5 a3 3c
       0.00044078752 -0.02374686 -0.01117652 0.01999179
0000b0 6a a7 0e bd ad 60 f8 bc 5c 81 ed bc 47 7f 72 3d
       -0.034827627 -0.030319536 -0.028992347 0.059203412
0000c0 55 b4 96 bd bb 5f d5 3d d7 06 ee bd 1a 21 1b bd
       -0.07358614 0.1041865 -0.11622398 -0.037873365
0000d0 49 55 d4 3b c0 4f 1f 3d aa 18 57 bd a5 62 26 bd
       0.0064798933 0.038894415 -0.052513756 -0.04062142
0000e0 38 4b a3 bb 2f 43 30 3d f0 42 cd 3b 6e 4c 3b 3d
       -0.004983332 0.04303282 0.006264083 0.045727186
0000f0 65 9b 7d 3d 95 77 d1 bc 78 2d 78 bc 06 d9 37 bc
       0.061915774 -0.025569716 -0.015147559 -0.011221176
000100 4a 67 1b bd 0e 9c 15 3d 59 49 5b bc ea ea 0a 3c
       -0.0379403 0.03652578 -0.013384187 0.008478859
000110 06 e2 d1 3c 2e ef 4a 3d a4 f0 fe bc a0 91 48 bc
       0.025620472 0.049544506 -0.031120606 -0.012241751
000120 b2 21 4e 3d 5f 9e 47 bd 84 29 9d 3c 9b 77 7e bc
       0.050325103 -0.04873502 0.019184835 -0.015531446
000130 e5 c2 bb 3c be 2e 20 bd 6c b1 57 bd f5 87 3b 3d
       0.022920081 -0.039107077 -0.052659437 0.045783956
000140 49 4b 08 3d 17 43 44 bc e5 3b 3d bc 54 9c 5e 3b
       0.033274923 -0.011978886 -0.0115499245 0.003396769
000150 12 52 74 bd 0e 78 09 bc 5e fe 9b 3c a3 8c 9a bc
       -0.05964858 -0.00839044 0.01904219 -0.018865889
000160 1f 5d e4 bd 52 88 91 bd bf 70 b2 3b d1 86 b1 3c
       -0.11150574 -0.07106079 0.0054455693 0.02167073
000170 60 ab 48 3d c0 fc 01 bb b2 d7 bc 3d 5b 3e 89 3b
       0.04899156 -0.0019834489 0.09220828 0.0041883416
000180 26 07 e1 3c 63 82 89 bc a9 02 06 bd e3 f1 4e ba
       0.027469229 -0.016785806 -0.03271738 -0.00078943203
000190 20 ce 7c 3d e5 72 a4 bc 0c 62 a3 bc 94 d7 1a bb
       0.061720014 -0.020074317 -0.019944213 -0.002362703
0001a0 2b e2 57 bd 52 aa 78 bd d8 e1 71 3d 51 3c fe 3d
       -0.052705925 -0.060709305 0.059053272 0.12413848
0001b0 db 27 28 3c f3 df 88 bc 52 8a b4 3c 93 31 1b bd
       0.0102634085 -0.01670835 0.022038613 -0.037889075
0001c0 a6 f1 0d bb 15 14 d7 3b 57 f6 11 3c 2e c9 02 3d
       -0.0021658926 0.0065636733 0.00890883 0.03193014
0001d0 94 62 58 bd 09 57 89 ba 54 04 2a 3d 65 1f bf 3b
       -0.052828386 -0.0010478209 0.041508034 0.0058326
0001e0 d6 cb 50 3d 2b 52 92 3c e1 0d 81 bc b7 1c 48 bd
       0.050975643 0.017861446 -0.015753688 -0.04885551
0001f0 55 b5 b9 bc e3 4a 08 bd 53 5b 27 3b ec f8 84 3d
       -0.022669474 -0.033274543 0.0025536611 0.064927906
000200 a0 d7 de bd 46 60 ba 3c d8 5a f0 bc cf 62 a3 3c
       -0.10880971 0.022750985 -0.029340193 0.019944577
000210 b3 22 0a 3d 2c 4e 07 3d 67 1b 30 3d e8 c2 a3 bc
       0.033724498 0.033033535 0.042994883 -0.0199904
000220 c3 1d 9c bc 12 52 e2 3c f3 85 00 3b 2c 98 a4 bc
       -0.01905716 0.027627025 0.001961109 -0.020092092
000230 ca cd 34 3d 65 7c 43 3d 30 8e 0c bd 94 46 5e bd
       0.04414157 0.047726054 -0.034315288 -0.054266527
000240 6b eb 59 bd 75 74 a5 bd be be 4c bd ba 2a 73 bb
       -0.053203028 -0.08078853 -0.049986593 -0.0037104324
000250 fa 2f a7 bd 7b 77 04 3d cc c3 53 3d d1 e3 8b 3d
       -0.08163448 0.032340508 0.0517004 0.06830562
000260 01 67 0e bc df 4b 0d 3d 07 f1 06 bd 6a 41 15 bd
       -0.00869155 0.034496184 -0.032944705 -0.036439337
000270 67 68 cd 3c c5 8c ee 3c 4c 5f b2 bb 44 29 0b bd
       0.025074197 0.029119859 -0.005443489 -0.0339749
000280 d5 68 f2 3b 36 60 4b 3d f7 d2 80 bc 1b 24 b1 bb
       0.007397751 0.0496523 -0.015725596 -0.0054059154
000290 15 95 92 bc d3 66 67 3b a2 f9 a4 3c 47 37 9b 3d
       -0.017893353 0.003530909 0.020138565 0.07578903
0002a0 b3 51 60 3d 45 33 09 3d 2b 7e dd bc cd ac 69 3c
       0.054765414 0.03349616 -0.0270377 0.01426239
0002b0 75 a5 0b bc f6 c2 11 bd f9 a6 7f 3c 35 8e 46 3d
       -0.008523335 -0.03558632 0.015603774 0.048475463
0002c0 88 02 ff ba 36 43 3c 3b 42 7e 12 3c 26 b7 f1 bb
       -0.001945571 0.0028726584 0.008941235 -0.0073765693
0002d0 9d 3a d5 3b a2 59 17 bc 88 49 0f 3c 18 e4 1c bc
       0.0065072314 -0.009237679 0.008745559 -0.009575866
0002e0 3c 8b d2 3c 6f 0b bd bc c9 9c 03 bd 7f 85 53 bd
       0.025701158 -0.023076741 -0.032131944 -0.051640984
0002f0 c7 6d f8 bc ad fc 1d 3c 50 cf ab 3c a9 32 a5 bc
       -0.030325783 0.009642762 0.020972878 -0.020165758
000300 dd 49 b2 bb a3 ab f7 bb 6a d7 58 3c 05 c1 90 3b
       -0.005440934 -0.0075583025 0.013234952 0.004417541
000310 47 b0 d7 bc 89 ce a3 bc fd 12 86 3b 61 4f 15 3d
       -0.026329173 -0.019995945 0.004091619 0.036452655
000320 f6 5e 05 bc 12 33 41 be 1b 6b 54 bd 4c 6e 6b bb
       -0.008140316 -0.18867138 -0.051859956 -0.0035923896
000330 42 a4 08 bd 2f 19 18 3c 35 85 15 3c fb fe aa 3c
       -0.033359773 0.009283348 0.009125997 0.020873537
000340 90 97 9c 3c da 05 68 3c f5 35 ad 3c 35 96 71 bc
       0.01911524 0.014161551 0.021143893 -0.014745285
000350 5c e0 81 3c f8 38 9b bb f1 e6 39 3b f3 68 ae bc
       0.015854053 -0.004737016 0.0028366412 -0.021290278
000360 72 47 56 bc a3 24 e2 3c 46 1e c5 bc 58 48 89 3c
       -0.013078557 0.02760536 -0.024062287 0.016758129
000370 f3 a2 e7 bc 36 77 c0 bc 9c ba 2b 3b a0 d3 65 3a
       -0.028275942 -0.023494344 0.0026203757 0.00087671913
000380 f8 81 54 bc c1 2b 0e 3c 44 28 89 3c 62 66 f0 3b
       -0.01297044 0.008677424 0.016742833 0.0073364237
000390 bb ef b8 bb 91 fd 0b bc 3d 0a 8d 3b 1d e7 29 bc
       -0.0056438125 -0.008544342 0.004304199 -0.010370043
0003a0 d3 e8 e6 3c 43 83 c4 bc bb 84 46 bd 08 a7 b2 3b
       0.028187191 -0.023988372 -0.048466425 0.0054520406
0003b0 a3 bc 72 bd f5 60 ce 3c 97 72 02 bb 9f 05 c2 ba
       -0.05926193 0.025192717 -0.0019904727 -0.0014802701
0003c0 8c ca 84 bb c6 7a af 3b 8f 05 3e 3d 0c c4 c8 bc
       -0.004052466 0.005355212 0.04639202 -0.024507545
0003d0 b0 fb c8 3d fb 6a 6d 3d 93 13 79 3d b1 6b b1 bd
       0.098136306 0.057963353 0.060809683 -0.08663119
0003e0 02 56 70 bd f2 49 86 bd d4 c9 a8 3d be 13 56 3b
       -0.058675773 -0.06557073 0.08241621 0.0032665576
0003f0 0d ad 1a 3d 00 3b 03 bc 02 4c 23 bc e8 d5 96 3c
       0.03776269 -0.008009672 -0.009966852 0.018412545

w1.bias f4 [96]
000000 3b 0a a8 bd f4 2f 19 3d be 10 62 bb 70 4a 1d be
       -0.08205076 0.037399247 -0.0034494842 -0.15360427
000010 0f 1f df b9 96 b3 e7 bd d8 4b cc 3c d2 68 4b 3c
       -0.00042557015 -0.1131355 0.024938509 0.012415128
000020 94 f4 cc bc e3 dd 0e bd e8 6d 0a bd 9f f9 85 bc
       -0.025018968 -0.034879576 -0.03379622 -0.01635438
000030 35 94 b9 3d b6 d3 01 be 29 88 ab bd 87 f1 68 bd
       0.090614714 -0.12678418 -0.0837558 -0.056870963
000040 04 4c a9 3d db 9d c3 bd 5f 03 4d 3d 5b 02 8b 3d
       0.08266452 -0.09551593 0.050052043 0.06787559
000050 5f 50 36 3d c8 d6 96 3c 51 94 46 bd cc e5 07 bd
       0.04451024 0.018412963 -0.04848129 -0.033178136
000060 29 5c 9d bd 9e 59 50 3d 5b 13 89 3d 0e b7 e9 bd
       -0.07683594 0.050866716 0.06693145 -0.11411868
000070 68 f7 06 be b1 5e a8 bb 3b c2 cb bd 54 d4 5f 3d
       -0.13180315 -0.005138241 -0.09949156 0.05464585
000080 b0 0e 8e bd 28 23 2f 3d 0d 26 5b bc c0 98 04 be
       -0.06936395 0.042758137 -0.013375771 -0.12948895
000090 bc 03 0e 3d 2e a6 66 bd 55 9c 44 3d 3f cf 89 bd
       0.03467153 -0.056310825 0.048000652 -0.06728982
0000a0 0b 4a 93 3c ef a1 b3 3d f5 f2 2e bd f0 f9 e0 3c
       0.017979642 0.08771121 -0.04271217 0.02746293
0000b0 ea 80 99 bd bb 71 13 3d 23 d4 fc 3d 91 1e 59 bd
       -0.074952915 0.035997134 0.12345149 -0.053007666
0000c0 65 0f b5 3d ea 4e 1f 3d 8f f5 b8 bd 5c 31 a8 bd
       0.08840827 0.038893618 -0.090312116 -0.082125396
0000d0 c9 fb 77 bd 06 73 9d bd 4c 81 a5 bd 1a d9 97 3c
       -0.060542855 -0.076879546 -0.08081302 0.01853614
0000e0 85 55 9b 3d be 5c be bd 4b ee e5 3c 10 e7 9e bd
       0.07584671 -0.09295033 0.028067729 -0.077589154
0000f0 87 7f cd bd 0d ca 01 3e 57 1d e1 bd 77 d6 45 3d
       -0.100340895 0.12674733 -0.10991924 0.048300233
000100 65 98 bf 3d fb 25 e8 3d 8a 3c 7e 3d 9b 73 0c bd
       0.09355239 0.11335369 0.062069453 -0.034289937
000110 ce c3 d2 3d 06 a9 e2 bd 3f b7 81 3c 92 56 5e 3d
       0.10291253 -0.11067395 0.015834449 0.05428178
000120 dc 7c 4b bc 80 c1 ee bd 11 84 a9 3d fc e6 c6 bc
       -0.0124199055 -0.11658001 0.08277143 -0.024280064
000130 a3 08 93 bc 05 a9 9b 3d bf ea d2 bb c9 84 dc bd
       -0.017948454 0.07600597 -0.0064366753 -0.10767514
000140 7a c0 78 3d a1 8e 56 bd 94 fb 88 3d 27 49 37 3c
       0.060730435 -0.052382115 0.0668861 0.0111868745
000150 95 e4 19 be ab 17 a1 3d 65 a7 7f 3d 21 bb 0e be
       -0.15028603 0.078658424 0.0624155 -0.13938572
000160 3c af b3 bd 9f 86 2d bd 14 2b d2 bd c7 fc db 3c
       -0.08773658 -0.042364713 -0.10262123 0.026853932
000170 c1 46 49 bd 87 8b 9c 3c 6d 91 80 3c 55 a0 18 be
       -0.04913974 0.0191095 0.015694344 -0.14904912

w2.weight f4 [12, 96, 1, 1]
000000 10 fa 62 bd 56 c7 11 3c ef 24 1f 3a 8a 02 7e bc
       -0.05541426 0.008897623 0.0006070872 -0.015503535
000010 3b 32 d5 3c 2d e2 30 bd a1 2c 43 bb f8 91 a7 3c
       0.026024928 -0.043184448 -0.002978124 0.020455346
000020 91 7d 58 3d f0 95 e9 bc 3e 38 33 bd a1 ed 80 3c
       0.052854124 -0.028513879 -0.04375481 0.01573831
000030 a5 61 6b 3b b1 7c 79 3c d8 3d 9a bc f3 6a 18 3d
       0.0035916355 0.015227483 -0.018828318 0.03721137
000040 f1 43 65 bc 4d b4 8f 3c bb 88 02 bd d1 54 f0 bc
       -0.013993249 0.017542029 -0.031868678 -0.029337319
000050 cb 88 7b 3c 31 56 c1 3b 65 02 8a 3d 87 1a 24 3b
       0.015352438 0.0059001674 0.06738738 0.0025040226
000060 77 de 90 bc 53 0e 60 bd f5 6d 1e bd f5 fd c1 bc
       -0.017684205 -0.05470116 -0.038679082 -0.023680666
000070 45 f7 b2 3b d1 ee 46 bd 15 9d 24 3c 63 e1 16 bc
       0.0054616057 -0.048567597 0.010047217 -0.00920901
000080 c5 07 1b 3d 2e fb 15 3c c5 91 e8 bc d0 44 95 3a
       0.037849206 0.009154124 -0.02838982 0.0011388306
000090 6a ee 92 bb cc ae fb 3c 33 cc c6 bc 5e ea ed bc
       -0.0044839876 0.030722998 -0.024267292 -0.029042419
0000a0 97 d1 83 3d 7a 35 15 3d d2 ff c0 3c 26 8e 2c bd
       0.064364605 0.036427952 0.023559485 -0.04212775
0000b0 d1 cf f5 bb ab 13 42 bd 71 7b 88 3c 62 e1 31 3c
       -0.0075015803 -0.047382038 0.016660424 0.010856958
0000c0 b5 5d 88 bc 6f 2f 25 bd 92 16 6d bd a3 a6 20 3d
       -0.016646245 -0.04032844 -0.057882853 0.039221417
0000d0 52 f4 0d 3d f6 05 11 3c 15 40 0b bc 56 c7 31 bd
       0.03465683 0.008851519 -0.008499165 -0.043402992
0000e0 83 a4 6a bd e8 19 5c 3d 25 cf d1 bb a5 28 70 3c
       -0.057285797 0.053735644 -0.0064028674 0.014658128
0000f0 d9 0e 2c 3c d3 26 2d bc 1b b0 4e 3c f9 d7 e8 3c
       0.010501587 -0.010568338 0.012615229 0.028423296
000100 5a a9 a0 bc 7e ee 58 bd 30 80 b0 3b 1c f9 b9 3c
       -0.019612003 -0.05296182 0.005386375 0.022701792
000110 be cf 5d 3c 31 68 41 bd 31 4c 2b bd d2 ce 6d bd
       0.013538299 -0.047218505 -0.04182071 -0.058058567
000120 4b 9f fa bc 59 ff b9 3c 8c e1 ae bc 78 d8 0f bb
       -0.030593535 0.022704767 -0.021347784 -0.0021949094
000130 ee 8e c8 bc 26 95 19 bd 67 ac c2 3c 19 53 13 3d
       -0.024482217 -0.037495755 0.023763848 0.03596792
000140 5b d5 8a 3c e4 cd ad bc 43 f3 45 3c d5 38 2a bd
       0.016947439 -0.02121634 0.012081924 -0.041558105
000150 1b 80 5f 3d ad a6 82 3c 0c 83 fd 3b 50 07 41 bb
       0.05456553 0.015948618 0.0077365693 -0.0029453821
000160 d4 64 29 3d da b1 61 3c 50 de dd 3c 64 cb bb 3c
       0.041355923 0.013775313 0.027083546 0.022924133
000170 cf 4f f7 3a da f5 72 bc 69 57 43 3d db a4 09 bc
       0.0018868389 -0.014829123 0.047690783 -0.008401121
000180 45 3a 0a bd 11 54 97 3a ec c5 0c 3c b0 45 36 bc
       -0.033746976 0.001154544 0.00859211 -0.011125013
000190 45 5f 4a 3d 67 06 19 bd 62 59 5b bb d1 28 b2 3b
       0.049407262 -0.03735962 -0.0033470024 0.0054369946
0001a0 fb cf 5b bc 3f 05 ca bc 73 24 0f bd 97 70 ba 3b
       -0.013416286 -0.024660705 -0.03494687 0.0056896913
0001b0 c3 ab 91 3c 3a 69 74 bb 8a 31 b5 bc 73 c6 01 3d
       0.017782098 -0.0037294165 -0.022118349 0.031683397
0001c0 f9 8d 1b bc 36 bb 83 3c 5d 14 db bc 26 95 3c bd
       -0.009494298 0.01608048 -0.026743108 -0.046040677
0001d0 f0 b3 16 3c 9c 7b 08 bc 35 51 8c 3d d0 1e 58 3c
       0.009198174 -0.008330252 0.068514265 0.01319094
0001e0 ed b8 87 bc 11 09 0c bd 4d b2 86 3c 8d 85 ea bc
       -0.016567672 -0.034188334 0.016442442 -0.028628135
0001f0 5e 1a ca bb e3 ed b9 3c 05 ad d7 bc 85 ce 33 39
       -0.006167694 0.022696441 -0.02632762 0.00017147705
000200 fb e3 2c 3d dd fe 8b 3c b0 3f 9f bc 9a 19 1d 3c
       0.042209607 0.017089302 -0.019439548 0.009588623
000210 a8 58 8e bd 25 23 dd 3c 36 ac 70 bd 9b c8 e0 bc
       -0.069505036 0.026994297 -0.058757983 -0.027439406
000220 51 b9 8c bc 5c 71 0c 3c b3 5a 26 3d 87 b1 4d bd
       -0.01717821 0.008571949 0.04061384 -0.05021813
000230 02 f2 94 bb 12 6f 1c bd f3 f5 94 bc 7c 36 c5 3a
       -0.004545451 -0.038191862 -0.018183684 0.0015046145
000240 bf a5 7c bc 55 a9 28 bd 57 da 59 bd 9a ba 39 3d
       -0.015420376 -0.041177113 -0.05318674 0.045343973
000250 90 f4 0d 3d 63 36 85 3b b1 31 d9 bc f6 84 8a bc
       0.03465706 0.0040653213 -0.026512953 -0.016909104
000260 00 44 21 bd f5 68 41 3d 2c fd 55 3b 46 ad 37 bc
       -0.03937149 0.047219235 0.0032652123 -0.011210745
000270 60 93 c9 3b c8 3c 0c bd 02 2c e6 bb b1 d8 f4 3c
       0.0061516017 -0.034237653 -0.007024289 0.029888483
000280 a5 1b 0f bd 8d 2c 24 bd 26 2a df bb 37 64 88 3d
       -0.034938473 -0.04008155 -0.0068104444 0.066597395
000290 48 39 a5 3c 1e 4c 41 bd 4b 73 69 3d bf e1 05 3d
       0.020168915 -0.04719173 0.056994718 0.03268599
0002a0 6e 08 e7 3c ed bb d0 3c 04 81 0d 3d 5d 46 41 bd
       0.028202262 0.025480235 0.034546867 -0.047186244
0002b0 d6 00 b9 bc 04 58 d0 bc 06 4d 0f bd 5b 43 16 3d
       -0.022583406 -0.025432594 -0.034985565 0.03668533
0002c0 52 4b 1a bc 52 91 c1 bc 7b 58 46 bd 10 b0 53 bd
       -0.009417372 -0.023628864 -0.048424225 -0.05168158
0002d0 42 bb 3f 3d a1 87 0c 3d 75 d2 c6 3a ba 37 24 3b
       0.046809442 0.034309033 0.0015168922 0.002505763
0002e0 c3 3b 34 3d 44 4c 9f 3c 9c eb b7 3c 4f 5c d9 3c
       0.044002306 0.019445546 0.022451214 0.026533274
0002f0 2e b6 da 3a f8 f2 68 bc 87 6e 0d bc db 67 8a 3a
       0.0016686374 -0.0142180845 -0.008632309 0.0010559516
000300 6e 0d 0e bd 15 b8 9e bb c2 fd 05 3b ca 7f 91 3a
       -0.034680776 -0.0048437216 0.002044544 0.0011100706
000310 c0 27 11 3d a9 6a 20 bd 1c b3 38 3c 1f 5b a7 3c
       0.0354383 -0.03916422 0.011273172 0.020429192
000320 58 7d 30 3d 84 29 be bc 46 9c 08 bd a2 30 8b bc
       0.043088287 -0.023213156 -0.03335216 -0.016990963
000330 e6 73 4c bd ea 7e b0 3b ec 90 9b bc a7 2a 0f 3d
       -0.049915217 0.005386223 -0.018990003 0.034952786
000340 38 58 7e bc 0d 26 6b 3c 96 f4 29 bd 08 44 37 bd
       -0.015523963 0.014352334 -0.04149302 -0.044742614
000350 86 b9 b7 3c ce c7 74 3d 5b 72 88 3d 8f 03 88 3c
       0.022427332 0.05976086 0.066624366 0.01660326
000360 ed 5f 76 bc e6 f2 1e bd af f9 9a ba 2f f8 d2 bc
       -0.015037519 -0.038805865 -0.0011823679 -0.025753109
000370 74 7a 36 3c 72 0e 1e 3c 80 1c 86 3b f8 18 1b bd
       0.011137594 0.009646999 0.004092753 -0.03786561
000380 df 20 32 3d df 74 ad 3c 5a 75 91 bc 41 f8 77 3c
       0.04348838 0.021173893 -0.017756153 0.015134872
000390 ac 0e 31 bd 57 b4 b6 3c cc 3f 48 bd 44 78 f4 bc
       -0.043226883 0.02230279 -0.048888966 -0.029842503
0003a0 8b d4 16 3d 92 05 7d bb 31 ae 7f bd a3 01 19 bd
       0.03682379 -0.0038608056 -0.06242198 -0.037355077
0003b0 6e 87 a6 bb 54 4e 9e 3b d4 ac 19 bd 3c 36 16 3c
       -0.0050820624 0.004831115 -0.037518337 0.009168204
0003c0 66 65 9d bc 50 12 1e bd 7b 76 5b bd 80 17 28 3d
       -0.01921339 -0.038591683 -0.05357979 0.041038036
0003d0 ac 59 00 3d bd 38 ae bb 92 df df bb cd 09 65 bd
       0.031335518 -0.0053168223 -0.0068320716 -0.05591755
0003e0 1b a0 19 bd 72 85 4f 3d 73 f1 50 3d ce 45 a8 bc
       -0.037506204 0.050664373 0.051011514 -0.020541098
0003f0 6a 49 89 3b 83 0e 2e bc 63 13 20 bc bc a8 9e 3c
       0.00418966 -0.010623577 -0.009770247 0.019367568

w2.bias f4 [12]
000000 fe a6 19 39 de 96 94 3a 6c f1 47 ba 02 b0 0d 3b
       0.00014653426 0.0011336466 -0.0007627222 0.0021619801
000010 16 ce 90 3a 4c aa 9f 3b 32 f4 f6 bb 15 13 a7 ba
       0.0011047747 0.004872596 -0.0075364346 -0.0012746776
000020 70 c9 45 bc 6f fa 82 bb 78 0f 2e b9 78 b7 f7 3b
       -0.012071952 -0.003997139 -0.00016599696 0.007559713
