Weights/nca_model_perlin_ero.pt (torch, 25656 bytes, 3 tensors)

w1.weight f4 [96, 48, 1, 1]
0	0xbd603c51	-0.054745022
1	0xbdb782ee	-0.0896052
2	0x3d00df9e	0.031463258
3	0x3d995a5b	0.07487937
4	0x3e180c2e	0.14848396
5	0x3e2c77e5	0.16842611
6	0xbd0c7d85	-0.034299392
7	0xbe2430f8	-0.16034305
8	0x3e115968	0.14194262
9	0x3d1fd25b	0.03901897
10	0x3dca8b4e	0.098898515
11	0xbdab1b2f	-0.08354794
12	0x3d656d28	0.056012303
13	0x3dcde68d	0.1005374
14	0xbd5c40fe	-0.05377292
15	0x3dc25431	0.094887145
16	0x3d1a8e67	0.03773346
17	0x3b9ce076	0.0047875
18	0xbda7a2e5	-0.081853665
19	0xbd38cbb2	-0.045116134
20	0x3d83610e	0.06414996
21	0xbd9b32b5	-0.07578031
22	0xbe17ab41	-0.14811422
23	0x3dec93cd	0.11551628
24	0xbd29cf21	-0.0414573
25	0x3dbe274c	0.09284839
26	0x3d5c3d19	0.053769205
27	0xbd94fc4a	-0.07274683
28	0xbe0f7222	-0.14008382
29	0xbe073fc7	-0.13207923
30	0x3d370eec	0.044691965
31	0x3c9164c4	0.017748244
32	0xbbd9faf0	-0.0066522285
33	0x3cdca3b5	0.02693353
34	0x3da5e3ac	0.081000656
35	0xbdfc1568	-0.123087704
36	0x3d01a1b9	0.03164837
37	0x3e0f441a	0.13990822
38	0xbce40b09	-0.027837293
39	0x3d4d5e34	0.050138667
40	0x3c86f6cd	0.016475106
41	0xbd7d11ca	-0.061784543
42	0x3e1d4709	0.15359129
43	0x3e2d1672	0.16903093
44	0xbd17d918	-0.03707227
45	0xbde4afa6	-0.11166315
46	0x3d9d480e	0.07679759
47	0xbe25a9aa	-0.16178003
48	0x3d99ebeb	0.07515701
49	0xbde55c0c	-0.11199197
50	0x3df4bbb0	0.11949861
51	0xbca764a4	-0.020433731
52	0x3e120080	0.14258003
53	0x3dd8bd50	0.105829835
54	0x3dc24f21	0.09487749
55	0xbe2d862f	-0.16945718
56	0xbd9248ca	-0.0714279
57	0x3cfc4e4b	0.030799052
58	0x3d26415c	0.040589675
59	0x3dc637ee	0.096786365
60	0x3dd86729	0.10566551
61	0xbe217d26	-0.15770397
62	0xbda2f878	-0.07957548
63	0xbdc84642	-0.097790256
64	0x3dadf6b3	0.0849432
65	0xbe259929	-0.16171707
66	0x3ccc9a4b	0.024975916
67	0x3dfedc3d	0.12444351
68	0xbd522048	-0.051300317
69	0xbcae05d6	-0.021243017
70	0x3e22b7d1	0.15890433
71	0xbcf81167	-0.030281736
72	0xbc0ecfcc	-0.008716535
73	0xbe21b619	-0.15792121
74	0xbc0a89f0	-0.008455738
75	0x3d0c50d9	0.03425679
76	0xbc0eb0f4	-0.008709181
77	0x3d70e650	0.058813393
78	0x3e02be4f	0.1276791
79	0xbe0c9ad3	-0.13730936
80	0x3d3e2aab	0.04642741
81	0x3c8ee497	0.017442985
82	0x3c1bff1f	0.009521275
83	0xbd99cca4	-0.07509735
84	0x3d0daba1	0.034587506
85	0xbdce4061	-0.10070873
86	0x3d584344	0.052798524
87	0x3d6f8bc6	0.058482908
88	0x3dfcdfa6	0.12347345
89	0xbd1ce7ab	-0.038306873
90	0x3e11e20a	0.14246383
91	0x3e11e60e	0.14247915
92	0xbc51bd3d	-0.012801466
93	0x3e014877	0.126253
94	0x3d2f2040	0.042755365
95	0x3e017726	0.12643108
96	0x3d9bd795	0.076094784
97	0x3dd2f85c	0.10301277
98	0xbdafdfce	-0.08587609
99	0xbcb35384	-0.02189041
100	0xbdb40627	-0.08790236
101	0xbe0003b6	-0.12501416
102	0x3d8aca02	0.06776811
103	0x3e23cb18	0.15995443
104	0xbe45553b	-0.19270794
105	0x3a841c66	0.0010079264
106	0xbcae4cda	-0.02127688
107	0x3e2401fa	0.16016379
108	0x3d3801be	0.044923536
109	0xbd869819	-0.06571979
110	0x3cd6d3fb	0.026224127
111	0xbde0dad7	-0.109792404
112	0x3c00ff10	0.007873312
113	0xbbfd571c	-0.0077313315
114	0x3c83f5d9	0.01610844
115	0x3d0e1b37	0.034693923
116	0xbd916a35	-0.071003355
117	0xbd89d09e	-0.06729244
118	0x3dd7de39	0.105404325
119	0x3dd0a7d0	0.10188258
120	0x3dec3de8	0.11535245
121	0xbdc9bd42	-0.09850551
122	0x3c6e98df	0.0145628145
123	0xbc9b84dc	-0.01898425
124	0x3d8f8eb0	0.07009637
125	0xbddf5574	-0.10904971
126	0xbdfaa2ee	-0.122381076
127	0xbd30664c	-0.043066308
128	0xbcaa692d	-0.020802105
129	0x3e09fc50	0.13475156
130	0x3e26654f	0.16249584
131	0xbe0051c1	-0.12531187
132	0xbd90becf	-0.07067644
133	0x3bab4807	0.005227092
134	0x3e008622	0.12551168
135	0x3ccd7dfc	0.025084488
136	0xbd2899c7	-0.04116228
137	0xbc85f526	-0.016352247
138	0xbe02a3a1	-0.12757732
139	0x3d6ff6c9	0.058584962
140	0x3dc85429	0.09781677
141	0xbdf91686	-0.12162499
142	0x3d8cf6c3	0.068830036
143	0x3d6304e5	0.05542459
144	0xbde84295	-0.113408245
145	0x3deb88c7	0.115006976
146	0x3b10a56b	0.0022071253
147	0xbd45075f	-0.048102733
148	0xbe443f37	-0.1916474
149	0xbe0893d0	-0.13337636
150	0xbdc22908	-0.09480482
151	0xbd824511	-0.063608296
152	0x3e10bc7a	0.14134398
153	0xbdbb0dc2	-0.091334835
154	0x3de50d99	0.11184234
155	0xbd20337f	-0.03911161
156	0x3c06c4ad	0.008225602
157	0x3d9c714b	0.076387964
158	0xbd625264	-0.055254355
159	0xbd64afef	-0.055831846
160	0xbd9f142e	-0.07767521
161	0x3ca6d3fa	0.02036475
162	0x3dbd00e3	0.09228685
163	0x3e01c26b	0.12671821
164	0x3cbe7fb6	0.023254257
165	0xbd2a2725	-0.041541237
166	0xbdeefe02	-0.11669542
167	0xbe2d7da6	-0.16942462
168	0xbdeacb4f	-0.11464559
169	0xb9bd9c04	-0.0003616513
170	0xbdae1cf4	-0.08501616
171	0xbd5dafbf	-0.054122683
172	0x3e1d0829	0.15335144
173	0x3db1beb6	0.08678953
174	0xbc31ac20	-0.01084426
175	0x3d34fab3	0.044184398
176	0x3d89d2b0	0.067296386
177	0xbdcb381b	-0.09922811
178	0x3e2a934e	0.16657755
179	0xbe08daac	-0.13364667
180	0x3dac6b20	0.0841887
181	0xbc72cc48	-0.014819212
182	0x3c31ea3c	0.0108590685
183	0x3d56fe63	0.052488696
184	0xbdd7fae9	-0.10545904
185	0xbd38c904	-0.04511358
186	0x3ce5e605	0.028063783
187	0x3ddb196d	0.10698209
188	0xbde5dca8	-0.112237275
189	0xbdcc38de	-0.09971784
190	0xbc60882c	-0.013704341
191	0xbe000ca6	-0.12504825
192	0x3c94c7c5	0.018161664
193	0x3d3b3a1d	0.045709718
194	0x3d425a07	0.047449138
195	0x3db38e89	0.08767421
196	0x3e02ed05	0.12785728
197	0x3cad1cb9	0.02113186
198	0x3dc6d226	0.097080514
199	0x3dadfa8f	0.08495056
200	0x3dfcba79	0.12340254
201	0x3d359b4a	0.04433755
202	0xbe25b7aa	-0.16183344
203	0xbe4b9f4f	-0.1988499
204	0x3e0aee46	0.13567457
205	0xbdf9a2fc	-0.1218929
206	0x3d702794	0.058631495
207	0x3dd3a35b	0.10333892
208	0xbc239964	-0.009985302
209	0xbdad0150	-0.08447516
210	0xbdb7e5e7	-0.08979397
211	0x3dd7e2d6	0.105413124
212	0x3d1d51ce	0.038408093
213	0x3d6cfc60	0.05785787
214	0xbd86d00d	-0.06582651
215	0x3db674b7	0.0890898
216	0xbcdff220	-0.027337134
217	0xbe5bb216	-0.21454653
218	0xbd5a63d8	-0.053317875
219	0xbbe131b1	-0.0068723788
220	0xbe1b21b4	-0.15149575
221	0x3e646430	0.22303843
222	0x3da88ecb	0.082303606
223	0xbdfa6d22	-0.12227847
224	0xbd9f902c	-0.077911705
225	0x3d63a310	0.05557543
226	0xbe544e44	-0.20732981
227	0x3df0be1d	0.11755011
228	0xbdc519ae	-0.09624039
229	0xbcf44a7f	-0.029820679
230	0xbe01baf4	-0.12668973
231	0xbe073f3c	-0.13207716
232	0x3dbcb0c8	0.09213406
233	0xbe0bb6ff	-0.13644026
234	0x3da1acf8	0.07894319
235	0xbd06b9b0	-0.03289193
236	0x3b1c6feb	0.002387042
237	0x3de90912	0.11378683
238	0x3dcfbf64	0.10143927
239	0x3c33624f	0.010948732
240	0xbe5d0335	-0.21583255
241	0xbd17247a	-0.03690002
242	0x3e247078	0.16058528
243	0xbd0f9942	-0.035058267
244	0xbd6edd59	-0.058316562
245	0x3d1a8be2	0.03773106
246	0xbdf88b2b	-0.12135919
247	0xbe1e4c9e	-0.15458915
248	0x3e2bab0e	0.16764471
249	0xbc942427	-0.018083645
250	0xbdb0e922	-0.086382166
251	0x3db02f50	0.08602774
252	0xbd8179d7	-0.06322067
253	0x3d63e234	0.055635646
254	0x3d7f423b	0.06231902
255	0x3c43e2fa	0.011955971

w1.bias f4 [96]
0	0xbdca6bb2	-0.098838225
1	0x3cd1c5eb	0.02560707
2	0xbd976394	-0.0739204
3	0x3d044e91	0.03230149
4	0x3dc61a95	0.09673039
5	0xbd4aa789	-0.04947618
6	0xbd9e0aa0	-0.0771687
7	0xbdb40c5c	-0.0879142
8	0xbd12a8f0	-0.035805643
9	0x3d31093e	0.043221705
10	0xbe07471b	-0.13210718
11	0xbd8470c7	-0.06466823
12	0xbdad68b6	-0.08467238
13	0xbdec9382	-0.115515724
14	0x3d986595	0.0744125
15	0x3cec9c40	0.0288831
16	0x3d956e68	0.07296449
17	0xbc1944b5	-0.00935476
18	0xbd8b460f	-0.06800472
19	0xbd68c7a8	-0.056831032
20	0xbdb39089	-0.08767802
21	0x3ce863ca	0.028367896
22	0xbcd9af2a	-0.026572783
23	0xbcc3de75	-0.023909787
24	0x3d2fc7cc	0.04291515
25	0x3dce6bea	0.10079177
26	0xbdc36da9	-0.095424004
27	0xbd2ae987	-0.041726615
28	0xbd97df6f	-0.074156635
29	0x3a8403b6	0.0010071907
30	0xbdddead9	-0.10835809
31	0x3d8e352b	0.06943735
32	0x3de840cd	0.11340485
33	0xbd42db6c	-0.04757254
34	0xbdfa1dba	-0.12212701
35	0xbc3f0f8b	-0.011661421
36	0xbda49d5b	-0.08037826
37	0x3de4a6f7	0.111646585
38	0x3da094fb	0.07840916
39	0x3d910861	0.07081676
40	0x3ca403df	0.020021377
41	0xbda10480	-0.078621864
42	0xbc8f90aa	-0.017525036
43	0xbdb384c5	-0.08765558
44	0xbd998057	-0.07495182
45	0x3ddace9e	0.1068394
46	0x3cfedd4f	0.031111388
47	0xbd44c98a	-0.048043765
48	0xbb1a64fa	-0.0023558722
49	0x3b85503f	0.004068404
50	0xbddb0b44	-0.10695508
51	0x3d4417d3	0.047874283
52	0xbcc9fb8a	-0.024656076
53	0x3d8f5e54	0.070004135
54	0xbd37f404	-0.044910446
55	0x3d749d05	0.059720058
56	0xbde0bdda	-0.10973711
57	0xbd88091b	-0.06642362
58	0x3bf84f94	0.007577846
59	0x3d813be3	0.063102506
60	0x3cf4f872	0.029903624
61	0x3d7b21bb	0.061311465
62	0xbda3d65b	-0.079998694
63	0xbd51f8c4	-0.051262632
64	0x3d7831f1	0.060594503
65	0xbdb6d47f	-0.08927249
66	0xbe042429	-0.12904419
67	0xbd06299a	-0.032754518
68	0x3d43d992	0.047814913
69	0xbd5e5658	-0.054281563
70	0x3c0263a2	0.007958325
71	0xbba72876	-0.005101259
72	0x3da54f13	0.08071723
73	0xbe159116	-0.14606127
74	0x3c848720	0.016177714
75	0x3da16fc1	0.078826435
76	0x3b93cb18	0.0045102946
77	0x3dba3cdb	0.090936385
78	0xbd9d2a7d	-0.076741196
79	0xbdf2c4a0	-0.118539095
80	0x3dcd04c6	0.10010676
81	0xbd5f1453	-0.054462742
82	0xbd913c99	-0.07091636
83	0xbda67253	-0.08127274
84	0xbda95eae	-0.08270012
85	0x3d07136b	0.032977503
86	0x3cc6faea	0.024289567
87	0xbce3501f	-0.027748166
88	0xbd945b93	-0.07244029
89	0x3caed54e	0.021341946
90	0x3d05c719	0.032660577
91	0x3bdb3c3b	0.0066905296
92	0xbc23ccb1	-0.009997533
93	0x3d94ce25	0.072658814
94	0xbe09ea20	-0.13468218
95	0xbc347121	-0.0110133

w2.weight f4 [12, 96, 1, 1]
0	0xbcd49aaf	-0.025952665
1	0xbd29e901	-0.041481975
2	0x3cb55f0c	0.022140048
3	0x3c87c184	0.016571768
4	0xbb54280d	-0.0032372505
5	0x3cfb44e6	0.030672502
6	0x3c1c96c4	0.00955743
7	0xbbe1b249	-0.0068877083
8	0x3ba87fe9	0.005142201
9	0xbcb797dc	-0.02241128
10	0x3c1c22ef	0.009529813
11	0x3c4a8692	0.012361186
12	0x3cad1129	0.021126347
13	0xbc5d7052	-0.013515549
14	0x3b04265f	0.0020164473
15	0xbd57d40c	-0.052692458
16	0xbcd003a3	-0.02539236
17	0x3a8eb5e5	0.0010887949
18	0x3c4a3458	0.012341581
19	0x3cb21fa1	0.021743597
20	0xbcaa307b	-0.02077507
21	0x3c82ecd7	0.015982075
22	0xbc006be4	-0.007838223
23	0xbd093f22	-0.033507474
24	0x3c80f3ff	0.015741346
25	0xbbb52bde	-0.005528911
26	0xbcb8c58c	-0.022555135
27	0xbc9ab22e	-0.01888379
28	0x3d38391b	0.044976335
29	0xbc3a8690	-0.011384621
30	0x3cc275a0	0.023737729
31	0x3d2b4aaa	0.041819252
32	0xbcbc195a	-0.022961307
33	0x3c119827	0.008886374
34	0xbc9843ce	-0.01858702
35	0xbcdf8ff3	-0.02729032
36	0x3b32a3e0	0.0027258322
37	0x3c14e7ce	0.00908847
38	0xbd482765	-0.048865695
39	0xbbfaa076	-0.007648523
40	0xbd33dead	-0.043913532
41	0xbca9a5a7	-0.020708872
42	0x3cacefc1	0.021110417
43	0x3ca04988	0.019566312
44	0x3c766ee4	0.015041087
45	0x3b571db3	0.0032824099
46	0x3d0927de	0.033485286
47	0xbce1bf6a	-0.027557094
48	0x3b89d9dd	0.0042068795
49	0xbce72d56	-0.02821986
50	0x3c3f18b9	0.011663609
51	0xbc67e46b	-0.01415358
52	0x3c686702	0.014184715
53	0x3cbf4fc7	0.02335347
54	0xbc3672fb	-0.011135812
55	0x3ae2440a	0.0017262709
56	0x3ca15e89	0.019698398
57	0xbbbe1672	-0.0058010155
58	0xbd114ac8	-0.035471708
59	0xbca76d5b	-0.020437887
60	0xbc86ec67	-0.016470147
61	0xbcb4ffc0	-0.022094607
62	0x3cc648e6	0.024204683
63	0x3bac14d7	0.0052515077
64	0x3c1ba4ce	0.009499742
65	0x3c2ac5de	0.010423152
66	0xbd2eb1ce	-0.042650037
67	0x3cadcff7	0.02121733
68	0x3ce60519	0.028078603
69	0x3c515cc1	0.012778462
70	0xbc7981f8	-0.015228741
71	0x3cbe8d93	0.023260867
72	0xbc614c22	-0.013751062
73	0xbccb8f33	-0.024848556
74	0xbce866cc	-0.02836933
75	0x3c5b12b8	0.013371162
76	0xbc2b7c15	-0.010466595
77	0xbcf7ee5c	-0.030265026
78	0x399603e1	0.0002861312
79	0x3cc88404	0.024477012
80	0xb97671a1	-0.00023502718
81	0xbccc2504	-0.024919994
82	0x3cd6b895	0.026211062
83	0x3d3f0475	0.04663511
84	0x3901ad8c	0.0001236705
85	0x3ba20d7f	0.0049454565
86	0x3bd5f463	0.0065293773
87	0x3bde48bc	0.006783573
88	0x3c6a99bd	0.014318881
89	0xbd0d31f0	-0.034471452
90	0xbc95ec74	-0.018301226
91	0x3c20d432	0.009816216
92	0xbc81d59b	-0.015848925
93	0xbcc53b7c	-0.024076216
94	0xbbcaa1c4	-0.0061838347
95	0xbccf80e6	-0.025330018
96	0xbcc81259	-0.024422811
97	0xbd2b5478	-0.041828603
98	0x3d0fd37e	0.035113804
99	0x3d11152f	0.035420593
100	0xbcb5ac8f	-0.022177009
101	0x3bc48cfb	0.0059982515
102	0x3a0d8927	0.00053991604
103	0xbbc83206	-0.006109479
104	0xb9ec0af3	-0.00045021586
105	0xbcca1cb1	-0.024671884
106	0x3c43a684	0.011941556
107	0x3c9c5afa	0.01908635
108	0x3c9428d3	0.018085873
109	0xbcacfc62	-0.02111644
110	0xba1274fa	-0.0005586889
111	0xb8997106	-7.316661e-05
112	0xbc8c6597	-0.017138286
113	0xbcc2fca7	-0.023802115
114	0xbc853817	-0.016262097
115	0x3c9d1c2c	0.019178472
116	0xbca20422	-0.019777361
117	0x3cc6fe6a	0.024291236
118	0x3bff8100	0.0077973604
119	0xbd199b96	-0.037501894
120	0x3c8afaa2	0.016965214
121	0xbcaacb6f	-0.020848958
122	0xbc813c8e	-0.015775945
123	0xbc76c0bc	-0.0150606
124	0x3d0c2d21	0.034222726
125	0x3ce1c836	0.027561288
126	0x3d0e704c	0.034775063
127	0xbd5c6f9d	-0.05381738
128	0x3bc29214	0.005937824
129	0x3d3a8c3e	0.0455439
130	0xbcf2b772	-0.02962849
131	0xbca165da	-0.019701887
132	0x3c1fa674	0.009744275
133	0x3b5bfcc2	0.0033567403
134	0x3c1bdc0d	0.009512913
135	0xbcc517cf	-0.024059204
136	0xbd0b6738	-0.034033984
137	0xbce7bee0	-0.028289258
138	0x3d3153fc	0.043292984
139	0x3c18ec9d	0.009333757
140	0x3b102a77	0.0021997967
141	0xbc92899b	-0.017887881
142	0x3cd2f844	0.025753148
143	0xbce43274	-0.02785609
144	0x3be494d0	0.0069757476
145	0xbca3df63	-0.02000398
146	0x3b8d8791	0.0043191393
147	0xbc87448f	-0.016512183
148	0x3d067c36	0.0328333
149	0xbabf1758	-0.00145791
150	0xbca06001	-0.019577028
151	0x3b058699	0.0020374416
152	0x3c836880	0.01604104
153	0xbc7d401c	-0.015457179
154	0xbcae2285	-0.021256695
155	0xbd124ef7	-0.035719838
156	0x3d301f53	0.042998623
157	0xbbbf05d4	-0.005829552
158	0x3c5678db	0.013090338
159	0x3cea7b38	0.028623208
160	0xbb09031e	-0.00209064
161	0x3bc219a7	0.005923468
162	0xbd4983aa	-0.04919783
163	0x3ca5efcb	0.020255944
164	0x3c5b64ca	0.013390729
165	0x3c202465	0.009774302
166	0xbd569b88	-0.05239442
167	0xbc848f05	-0.016181478
168	0xbc65a62a	-0.014016667
169	0xbcd5f077	-0.02611564
170	0xbce1a8a1	-0.027546229
171	0x3b1614ac	0.0022900505
172	0x3b756671	0.0037445093
173	0xbd152d2c	-0.036420032
174	0xbb5888a8	-0.0033040438
175	0x3cdf1c8a	0.027235288
176	0x39ccb2b3	0.00039043053
177	0xbd1790ef	-0.037003454
178	0x3cbb33cc	0.022851847
179	0x3d3634e3	0.04448403
180	0xbb0d12fd	-0.002152621
181	0x3ba762e2	0.0051082233
182	0x3c1ed555	0.009694417
183	0xbb33327f	-0.002734333
184	0x3bf2ab9f	0.0074057127
185	0xbc8d55ce	-0.017252829
186	0x3be08dd3	0.0068528443
187	0x3c7e3693	0.015515941
188	0xbc9a3c8e	-0.018827703
189	0x3d0f60f5	0.035004575
190	0xbc16614f	-0.009178474
191	0xbce4a6b6	-0.027911525
192	0xbc9082a6	-0.017640423
193	0xbc83d82f	-0.016094295
194	0x3d2c14f0	0.042012155
195	0xbc13651b	-0.008996273
196	0xbd289002	-0.04115296
197	0xbca76686	-0.02043463
198	0x3cc146fd	0.02359342
199	0xbcc2515f	-0.023720441
200	0xbc0a6477	-0.008446804
201	0xbc91aeb9	-0.01778351
202	0xbb26ff50	-0.0025481768
203	0x3cda004e	0.026611473
204	0x3cfa200c	0.03053286
205	0xbcb49e5e	-0.022048172
206	0xbab1a67d	-0.0013553646
207	0xbbbb4e39	-0.005716112
208	0xbc82f1ed	-0.0159845
209	0xbca76539	-0.020434009
210	0xbb2b46a7	-0.0026134641
211	0x3c73a71f	0.014871388
212	0x3bb58553	0.005539575
213	0x3c0b75e4	0.008511994
214	0xbb8b2d10	-0.004247315
215	0xbcfc2564	-0.030779548
216	0xbcd89e8d	-0.02644279
217	0x3c84de06	0.01621915
218	0xbceb6616	-0.028735202
219	0xbc994fb3	-0.018714761
220	0x3d2bf529	0.04198185
221	0xbd2b258d	-0.041783858
222	0x3c80ac07	0.015707029
223	0xbcf9330c	-0.030419849
224	0xbc8e91e2	-0.017403547
225	0x3d16c628	0.03681007
226	0xbcef20e9	-0.029190497
227	0xbceb469d	-0.028720194
228	0xbbb6699d	-0.0055667893
229	0x3c20a3d3	0.009804684
230	0xbd0e82c3	-0.034792673
231	0x3c8712ce	0.016488459
232	0x3cdff409	0.027338045
233	0xbcf91851	-0.030407103
234	0x3cdbfd56	0.026854198
235	0x3d21b0c9	0.039475236
236	0x3c8d03f2	0.017213795
237	0x3b839839	0.004015949
238	0x3d02e859	0.031959865
239	0xbc7af44b	-0.015317033
240	0x3cd082a4	0.02545292
241	0xbd1e5640	-0.038656473
242	0xbb8e14e2	-0.0043359855
243	0xbaff3cef	-0.0019473116
244	0xbcbaa4ea	-0.022783715
245	0xbc12a956	-0.008951506
246	0xbc8479e4	-0.016171403
247	0xbc8fa473	-0.01753447
248	0x3c96d451	0.018411787
249	0xbb461684	-0.0030225823
250	0xbd2989f6	-0.041391335
251	0x3bcee8da	0.006314379
252	0xbba1f26c	-0.004942229
253	0xbd4630bf	-0.04838633
254	0x3c49b422	0.012311013
255	0x3bcb1738	0.0061978363
