Weights/nca_model_fbm_ero.pt (torch, 25632 bytes, 3 tensors)

w1.weight f4 [96, 48, 1, 1]
-0.005478773 0.006162131 -0.085672334 -0.06676103 -0.19799238 0.0071080443 -0.1164254 0.08047998
0.084771544 -0.055319913 0.041589536 0.06483072 -0.15433478 0.10277408 -0.07844872 -0.04890312
0.04060259 -0.020418817 -0.059165005 0.044377457 0.062643215 -0.02999312 -0.10210487 -0.022590473
0.033120804 -0.057499237 0.0048969723 -0.0038756388 0.08140967 0.04073777 -0.025048127 0.025843658
-0.13335034 -0.014012984 -0.050357528 0.053458195 0.12298085 -0.033903223 0.1489457 -0.042473905
0.13896829 0.007050545 0.13015752 -0.008502085 0.004833976 -0.024320552 0.050856072 -0.082817286
0.12521139 -0.00088556414 0.020108143 0.059190713 -0.119118854 0.12385444 0.02144544 0.018046493
0.11327118 -0.027097454 -0.13458657 0.11012289 -0.07599463 0.034849048 -0.013468563 0.07974252
-0.13545814 -0.06062123 0.12383271 0.1237348 0.12151586 0.024900986 -0.004638868 -0.12694518
0.018566968 -0.05232888 0.07724712 0.16371061 -0.07716455 -0.07937128 -0.16401684 0.051570415
0.044484727 0.049497377 -0.057408717 0.07076468 -0.108666904 0.11445183 0.11823914 0.10555458
-0.08947975 0.07681212 0.07492937 -0.084007785 0.026602995 0.09775711 -0.0045671463 -0.043917507
0.02783129 0.05501131 -0.08930189 0.15550347 0.10520163 0.08638713 -0.122808985 0.09066614
-0.030191861 0.0779997 -0.12900159 -0.024387391 0.020058226 -0.04910159 0.15016557 -0.031197818
-0.048278388 0.0066868993 -0.13185439 0.1570538 -0.06699907 0.040079445 0.10433627 0.0033332212
0.025216283 0.18301523 0.09032867 0.07995021 -0.10014828 0.08876932 -0.08321395 -0.009644266
-0.1259747 -0.12864837 -0.14834581 0.026976991 0.0724401 0.12542497 0.06501273 0.0795108
0.08130066 -0.14400178 0.06819625 -0.08870777 0.047002755 0.11207403 -0.10591311 -0.16232207
-0.04088585 -0.11794833 0.05885143 0.033871368 -0.1243895 0.073591456 0.05100139 -0.09946166
-0.103406884 -0.07083101 -0.04456327 0.060167372 -0.09918799 -0.025750605 0.019604335 0.018524278
-0.036788262 -0.013129428 0.10279373 -0.13131027 -0.110904574 -0.10088635 -0.057012476 -0.0044096103
-0.057776324 -0.13251692 0.004028508 0.13187577 0.13144256 0.10597018 0.11507987 -0.024616867
-0.10649907 0.016163373 -0.096494 0.02243836 0.05898795 0.11962271 -0.012581285 -0.022829179
0.035800897 0.084785394 0.053587887 -0.07162289 -0.11525703 0.08416459 0.06785132 0.048180886
0.06675868 0.0659386 0.077292025 0.06832674 0.096448064 0.01594189 0.009151643 0.10455835
-0.0557137 -0.041603163 0.045842674 0.048083086 -0.13648953 -0.04975922 0.12672755 -0.06592632
0.07409968 -0.0034574203 -0.059363734 0.008354204 0.03739559 -0.023210151 -0.07952761 0.048197675
-0.016330574 0.14180435 0.14100946 0.003812915 0.08065749 -0.053894073 -0.024453102 -0.09848214
-0.16623026 -0.061867967 -0.095617376 -0.005907286 -0.008030537 0.06743695 -0.04491293 -0.06781366
-0.013466038 0.04336719 -0.13983284 -0.08652729 0.070878364 0.0152976755 -0.004542598 -0.019932598
0.018751152 -0.15179913 -0.0035193379 0.13404948 0.13952987 0.009823782 0.06989632 -0.039606865
-0.02149354 0.09674881 0.050779983 0.08378309 -0.14056215 0.091030456 -0.04405397 0.015850008
00000000: 4787 b3bb b4eb c93b fa74 afbd 02ba 88bd
00000010: 84be 4abe 99ea e83b 7170 eebd b0d2 a43d
00000020: b49c ad3d 2297 62bd ca59 2a3d f8c5 843d
00000030: f009 1ebe 387b d23d b9a9 a0bd a34e 48bd
00000040: e74e 263d 5d45 a7bc 0157 72bd 23c5 353d
00000050: 164b 803d 22b4 f5bc 5c1c d1bd a80f b9bc
00000060: aea9 073d 5284 6bbd c876 a03b 6efe 7dbb
00000070: 1dba a63d a6dc 263d bb31 cdbc 14b6 d33c
00000080: fe8c 08be b796 65bc b243 4ebd fbf6 5a3d
00000090: 62dd fb3d 1bde 0abd 3985 183e 1ef9 2dbd
000000a0: b44d 0e3e 4208 e73b 0348 053e 544c 0bbc
000000b0: 5466 9e3b e53b c7bc 754e 503d 1c9c a9bd
000000c0: 6a37 003e 3425 68ba d5b9 a43c f671 723d
000000d0: 96f4 f3bd 66a7 fd3d 59ae af3c 3dd6 933c
000000e0: b8fa e73d 7bfb ddbc 10d1 09be 1c88 e13d
000000f0: 13a3 9bbd e0bd 0e3d 3fab 5cbc 0c50 a33d
00000100: 8ab5 0abe f84d 78bd 019c fd3d ac68 fd3d
00000110: 4fdd f83d 27fd cb3c a501 98bb ebfd 01be
00000120: c119 983c cf56 56bd bd33 9e3d c1a3 273e
00000130: 7308 9ebd 698d a2bd 08f4 27be 803b 533d
00000140: 9e35 363d c3bd 4a3d 6725 6bbd 13ed 903d
00000150: c18c debd b965 ea3d 5d27 f23d 002d d83d
00000160: 2941 b7bd ac4f 9d3d 9274 993d 460c acbd
00000170: 86ee d93c e134 c83d 00a8 95bb d8e2 33bd
00000180: 72fe e33c 8a53 613d e9e3 b6bd 4d3c 1f3e
00000190: f473 d73d bceb b03d 4783 fbbd 2baf b93d
000001a0: ec54 f7bc 4fbe 9f3d fe18 04be 11c8 c7bc
000001b0: 2651 a43c c01e 49bd 01c5 193e 9192 ffbc
000001c0: 8fbf 45bd c71d db3b d604 07be b6d2 203e
000001d0: cf36 89bd 582a 243d 41ae d53d 2c72 5a3b
000001e0: 6192 ce3c 5868 3b3e 3dfe b83d f0bc a33d
000001f0: 8b1a cdbd b0cc b53d 136c aabd fc02 1ebc
00000200: 83ff 00be 66bc 03be f7e7 17be dafe dc3c
00000210: 7a5b 943d 676f 003e 6525 853d 8fd6 a23d
00000220: f680 a63d 3475 13be 7aaa 8b3d 6bac b5bd
00000230: f685 403d 1287 e53d f9e8 d8bd c237 26be
00000240: ec77 27bd e58e f1bd 320e 713d b4bc 0a3d
00000250: ecbf febd 1eb7 963d d5e6 503d 8eb2 cbbd
00000260: fdc6 d3bd d90f 91bd fa87 36bd 1072 763d
00000270: 1323 cbbd eff2 d2bc 4599 a03c 3ac0 973c
00000280: 4aaf 16bd d01c 57bc 8585 d23d 3376 06be
00000290: f021 e3bd 819d cebd ea85 69bd 7e7e 90bb
000002a0: dea6 6cbd 84b2 07be 9301 843b 710a 073e
000002b0: e198 063e e506 d93d ffae eb3d 50a9 c9bc
000002c0: 2f1c dabd 0d69 843c a59e c5bd a7d0 b73c
000002d0: 599d 713d c0fc f43d bc21 4ebc 4204 bbbc
000002e0: f6a3 123d f7a3 ad3d f97e 5b3d 06af 92bd
000002f0: e10b ecbd 7c5e ac3d a2f5 8a3d 5259 453d
00000300: c6b8 883d d10a 873d 484b 9e3d e4ee 8b3d
00000310: 9086 c53d 9198 823c c6f0 153c b022 d63d
00000320: 0c34 64bd 1468 2abd 87c5 3b3d c5f2 443d
00000330: e9c3 0bbe 53d0 4bbd dec4 013e 6104 87bd
00000340: 93c1 973d e395 62bb 6327 73bd 12e0 083c
00000350: 1e2c 193d 3723 bebc 5fdf a2bd ed6a 453d
00000360: b2c7 85bc 2935 113e c964 103e 19e2 793b
00000370: c12f a53d 08c0 5cbd df51 c8bc 01b1 c9bd
00000380: 4438 2abe 4469 7dbd 0bd3 c3bd e891 c1bb
00000390: 8392 03bc 621c 8a3d 9ff6 37bd e3e1 8abd
000003a0: a8a0 5cbc cba1 313d 5730 0fbe 3835 b1bd
000003b0: ad28 913d 1aa3 7a3c 13da 94bb b049 a3bc
000003c0: 049c 993c 3b71 1bbe b1a4 66bb 4444 093e
000003d0: ebe0 0e3e eef3 203c cd25 8f3d cf3a 22bd
000003e0: 3813 b0bc 3d24 c63d acfe 4f3d 7896 ab3d
000003f0: 86ef 0fbe 2d6e ba3d f071 34bd e0d7 813c

w1.bias f4 [96]
0.07359563 -0.015961507 0.05679868 -0.10796261 0.012015438 -0.0010112389 0.013897094 -0.05481839
-0.111303106 -0.045714457 -0.019227967 0.06439759 -0.12251801 0.08829984 0.11036314 -0.05818246
0.06296426 -0.096554756 -0.056530375 0.025284464 0.06918005 0.040652182 0.10227922 0.016495893
-0.027326576 -0.10098972 -0.084145665 0.027474873 -0.037473686 -0.09550915 -0.11182591 0.034414202
0.079833314 -0.0066373567 0.088021524 0.0691968 -0.0625307 -0.096281864 -0.06541184 0.016470296
-0.048958354 -0.108375646 -0.017810741 -0.0059715556 -0.004420028 0.03688397 0.056264456 -0.007458161
0.03586468 -0.06132419 0.09186251 -0.041598264 0.073802926 -0.015528397 0.044441868 -0.10564891
-0.12569124 -0.109757334 -0.052193884 0.03736896 0.08096695 -0.1287769 -0.13670956 -0.016836513
0.020372571 -0.080153495 -0.0032742252 -0.10857181 -0.10289578 0.073308244 -0.15525192 0.007244564
0.039865915 -0.12590083 -0.057043664 0.06832545 0.014256249 0.01940295 -0.1046336 -0.07631688
-0.05655934 -0.037930615 -0.05449272 0.10350224 -0.12708208 0.008390455 -0.061433706 0.013908118
0.09503455 -0.06497051 0.035038456 -0.11758059 0.045744672 -0.03196255 0.10058701 -0.11990165
00000000: 4eb9 963d b5c1 82bc bca5 683d 801b ddbd
00000010: 66dc 443c 8c8b 84ba a3b0 633c 4089 60bd
00000020: e2f2 e3bd 153f 3bbd f883 9dbc e2e2 833d
00000030: b9ea fabd 8cd6 b43d 1206 e23d bb50 6ebd
00000040: 68f3 803d 80be c5bd 658c 67bd 5d21 cf3c
00000050: 45ae 8d3d e782 263d c577 d13d 6522 873c
00000060: fcdb dfbc b3d3 cebd 9054 acbd fc12 e13c
00000070: 027e 19bd 4d9a c3bd fc04 e5bd e8f5 0c3d
00000080: a67f a33d 2f7e d9bb a144 b43d 0db7 8d3d
00000090: 1810 80bd 6d2f c5bd a5f6 85bd b7ec 863c
000000a0: 8e88 48bd 0df4 ddbd d5e7 91bc 0aad c3bb
000000b0: e2d5 90bb a513 173d 8f75 663d 9763 f4bb
000000c0: d8e6 123d 132f 7bbd 6922 bc3d f162 2abd
000000d0: fd25 973d d16a 7ebc ad08 363d 755e d8bd
000000e0: 34b5 00be 74c8 e0bd 41c9 55bd 3210 193d
000000f0: 00d2 a53d 17de 03be 97fd 0bbe baec 89bc
00000100: 61e4 a63c 8427 a4bd 6294 56bb e65a debd
00000110: 06bb d2bd a222 963d 5cfa 1ebe cf63 ed3b
00000120: 714a 233d 26ec 00be 9ea6 69bd 37ee 8b3d
00000130: 0b93 693c eff2 9e3c 244a d6bd 064c 9cbd
00000140: c4aa 67bd 225d 1bbd c233 5fbd fbf8 d33d
00000150: ce21 02be 1e78 093c e9a1 7bbd e0de 633c
00000160: 79a1 c23d 420f 85bd 7c84 0f3d 18ce f0bd
00000170: c45e 3b3d 2aeb 02bd 9000 ce3d ff8e f5bd

w2.weight f4 [12, 96, 1, 1]
-0.013768199 -0.0040954207 0.032668337 0.012432831 0.0101383 0.01166433 0.03097222 0.0077116196
-0.06339275 -0.0029694121 -0.019602926 0.021258948 0.053300925 0.0023269001 -0.028301412 0.01601636
-0.008894237 -0.034522705 0.0010918506 0.0007459904 -0.039001737 -0.024372349 -0.0073009785 0.003427063
-0.0066881534 -0.007376683 0.017612452 -0.0065936428 0.0072317235 0.008580826 0.03903085 0.04456388
-0.022463884 -0.039695658 -0.011261006 -0.03578673 0.005328346 0.0042481013 -0.0086193485 -0.02005567
-0.0031136419 0.0068461103 0.012957542 0.014164428 0.009489086 -0.019221261 0.015795158 -0.024570351
0.003191978 -0.011383075 -0.014166628 -0.009028434 -0.0011699906 -0.015551337 -0.0051279757 0.011600463
0.012895397 0.0031925512 0.0312912 -0.0025089795 0.015277816 -0.045554645 0.0023125135 0.009611708
-0.032014247 0.007183538 -0.0055783754 -0.005675593 -0.057145614 0.0058687404 -0.017356012 0.010590864
-0.05486107 0.019129472 -0.018421896 -0.021888727 -0.00910307 -0.01432897 0.008418026 -0.058877
0.018897593 -0.026003713 0.026856164 -0.0067859828 -0.012391584 0.020587929 0.035353564 -0.0009513889
0.031082949 0.037753027 0.006380638 0.017039806 0.0046653785 -0.014794504 -0.00037808155 0.05512584
0.021470638 0.0037599646 0.02956687 0.012347993 0.013224661 -0.0009505184 0.02904941 0.009188262
-0.043524273 0.0037274477 -0.022739338 -0.029876186 0.049550608 0.018318502 -0.027647799 0.010635886
-0.0013732552 0.006875747 0.0049505075 -0.005740712 -0.028843299 0.048063595 -0.021565001 0.0207699
-0.0041154507 0.013495468 0.02156288 0.0020587808 0.0049463646 0.0076311734 0.030061428 0.019200366
-0.020211585 -0.04062643 -0.006429788 -0.021702781 0.011509505 -0.0071508707 -0.004771673 -0.023812927
-0.0062612444 0.007842326 -0.0045368546 -0.0114671765 -0.006193674 -0.010279224 -0.014977069 -0.028617091
0.0051721376 -0.010084083 -0.021898227 0.0037913362 -0.034640834 -0.019605262 0.006413959 0.0065349755
0.009478485 0.0036998838 -0.020664189 0.0017275357 0.017402384 -0.040730633 -0.0018291948 0.0071803685
0.029984074 0.0057045 -0.00337382 0.018237911 -0.059877776 -0.0063009593 0.010636486 0.0049160034
0.04451148 0.02070426 -0.007022167 -0.004161771 0.020388706 -0.017863682 -0.011019805 -0.05482664
0.0008172305 0.006226844 0.023330197 -0.03449157 -0.011823435 0.030140927 0.033649415 -0.0082359845
0.033205427 0.034174055 -0.02328749 0.019332008 -0.014281925 -0.015970426 -0.0072452286 0.057343856
-0.014240409 0.00460551 0.027776854 0.014748216 0.015337253 0.013382807 0.043914646 0.00807839
-0.05245899 0.005746688 -0.01786182 0.009113128 0.06341857 -0.0036006058 -0.028964408 0.0126659805
-0.018290082 -0.024865506 0.00030641374 -0.003496352 -0.033226296 0.016791295 -0.024517426 0.008865513
-0.013068932 -0.0038442512 0.020909688 -0.029634675 0.011685998 0.012327536 0.03418939 0.02156989
-0.024224013 -0.03351538 -0.008416288 0.03888758 0.0014809949 -0.0063825483 -0.0024131178 -0.03138381
-0.013989258 -0.0034660425 0.0017834329 0.04177461 0.015424093 -0.014450284 0.025332771 0.00662064
0.0062499973 -0.009842554 -0.0184945 0.0018208508 -0.02419691 -0.018120928 -0.0047717453 0.013669356
0.011023506 0.006891773 -0.013117044 0.003588672 0.016599929 -0.033096727 -0.0016089407 0.007999818
00000000: 0394 61bc e132 86bb 3ccf 053d 13b3 4b3c
00000010: 1d1b 263c bf1b 3f3c 74b9 fd3c c1b1 fc3b
00000020: 0fd4 81bd 789a 42bb 5196 a0bc 3f27 ae3c
00000030: 1252 5a3d e87e 183b 5dd8 e7bc be34 833c
00000040: 22b9 11bc ae67 0dbd 6d1c 8f3a 918e 433a
00000050: 49c0 1fbd 85a8 c7bc 0c3d efbb 9498 603b
00000060: 4c28 dbbb 1ab8 f1bb fd47 903c 7c0f d8bb
00000070: 18f8 ec3b 9896 0c3c d0de 1f3d 9d88 363d
00000080: 2e06 b8bc ea97 22bd 1580 38bc 1b95 12bd
00000090: 6899 ae3b a833 8b3b 2b38 0dbc ca4b a4bc
000000a0: 3e0e 4cbb 5655 e03b df4b 543c eb11 683c
000000b0: 1d78 1b3c e875 9dbc d964 813c c347 c9bc
000000c0: 8130 513b 1480 3abc 251b 68bc ffeb 13bc
000000d0: 5f5a 99ba 09cb 7ebc 9408 a8bb de0f 3e3c
000000e0: 3747 533c 1f3a 513b 342b 003d b16d 24bb
000000f0: ce4f 7a3c 8297 3abd 8a8d 173b 6d7a 1d3c
00000100: 5f21 03bd e263 eb3b ceca b6bb 53fa b9bb
00000110: 8511 6abd 904e c03b 322e 8ebc 4e85 2d3c
00000120: 00b6 60bd 69b5 9c3c 84e9 96bc fd4f b3bc
00000130: 0b25 15bc 0ec4 6abc c3eb 093c 0229 71bd
00000140: 20cf 9a3c bd05 d5bc 7501 dc3c f35c debb
00000150: 1206 4bbc 04a8 a83c e6ce 103d a166 79ba
00000160: aba1 fe3c eba2 1a3d ac14 d13b 1097 8b3c
00000170: 08e0 983b a664 72bc 3f39 c6b9 a2cb 613d
00000180: 31e3 af3c bd69 763b 3836 f23c 3d4f 4a3c
00000190: 40ac 583c 362c 79ba 07f9 ed3c 5d8a 163c
000001a0: 8246 32bd 3248 743b d947 babc e7be f4bc
000001b0: 94f5 4a3d af10 963c a37d e2bc 2442 2e3c
000001c0: ccfe b3ba f24d e13b de37 a23b 951c bcbb
000001d0: c848 ecbc 55de 443d 16a9 b0bc a325 aa3c
000001e0: e7da 86bb 181c 5d3c a3a4 b03c 9cec 063b
000001f0: 1d15 a23b ec0e fa3b 6243 f63c 164a 9d3c
00000200: c492 a5bc e667 26bd f9b0 d2bb 08ca b1bc
00000210: 5d92 3c3c da51 eabb b25b 9cbb 5413 c3bc
00000220: 202b cdbb 197d 003c e5a9 94bb d3e0 3bbc
00000230: 4ef4 cabb 316a 28bc 6162 75bc 646e eabc
00000240: 097b a93b b637 25bc e963 b3bc 1178 783b
00000250: 8ce3 0dbd 379b a0bc 302c d23b 5923 d63b
00000260: a64b 1b3c c079 723b f247 a9bc 7b6e e23a
00000270: 728f 8e3c 2ad5 26bd 98c1 efba 4c49 eb3b
00000280: 29a1 f53c d0ec ba3b 4f1b 5dbb ac67 953c
00000290: 6642 75bd 4778 cebb a844 2e3c 6d16 a13b
000002a0: ab51 363d fb9b a93c 351a e6bb 775f 88bb
000002b0: 3706 a73c db56 92bc 6a8c 34bc e691 60bd
000002c0: 693b 563a 8e0a cc3b f81e bf3c 0847 0dbd
000002d0: 15b7 41bc 1bea f63c f8d3 093d 39f0 06bc
000002e0: 6a02 083d 18fa 0b3d 68c5 bebc 295e 9e3c
000002f0: bcfe 69bc 69d4 82bc 6269 edbb 64e1 6a3d
00000300: 9b50 69bc d1e9 963b 498c e33c 80a2 713c
00000310: 1a49 7b3c 9043 5b3c d8df 333d 395b 043c
00000320: 3ddf 56bd b74e bc3b f452 92bc 3b4f 153c
00000330: 98e1 813d 24f8 6bbb c446 edbc f984 4f3c
00000340: 15d5 95bc bfb2 cbbc 28a6 a039 0d23 65bb
00000350: 4c18 08bd e68d 893c c5d8 c8bc a840 113c
00000360: 131f 56bc d5ef 7bbb cb4a ab3c 6bc4 f2bc
00000370: a176 3f3c 6ff9 493c 2c0a 0c3d 57b3 b03c
00000380: 7071 c6bc 6c47 09bd 78e4 09bc 9548 1f3d
00000390: f11d c23a b224 d1bb 6625 1ebb 4f8c 00bd
000003a0: 3333 65bc 8b26 63bb 14c2 e93a da1b 2b3d
000003b0: 56b5 7c3c e2c0 6cbc ac86 cf3c f4f1 d83b
000003c0: c7cc cc3b aa42 21bc c781 97bc 9da9 ee3a
000003d0: 9938 c6bc 5772 94bc 4d5c 9cbb 6ff5 5f3c
000003e0: ef9b 343c 62d4 e13b dfe8 56bc ed2f 6b3b
000003f0: 93fc 873c 6f90 07bd 17e3 d2ba ab11 033c
